{"format": "graph-model", "generatedBy": "2.3.0", "convertedBy": "TensorFlow.js Converter v2.0.1.post1", "userDefinedMetadata": {"signature": {"outputs": {"predict": {"name": "predict"}}}}, "modelTopology": {"node": [{"name": "input", "op": "Placeholder", "attr": {"shape": {"shape": {"dim": [{"size": "-1"}, {"size": "224"}, {"size": "224"}, {"size": "3"}]}}, "dtype": {"type": "DT_FLOAT"}}}, {"name": "Mul/y", "op": "Const", "attr": {"value": {"tensor": {"dtype": "DT_FLOAT", "tensorShape": {}}}, "dtype": {"type": "DT_FLOAT"}}}, {"name": "Sub/y", "op": "Const", "attr": {"value": {"tensor": {"dtype": "DT_FLOAT", "tensorShape": {}}}, "dtype": {"type": "DT_FLOAT"}}}, {"name": "Mul_1/y", "op": "Const", "attr": {"value": {"tensor": {"dtype": "DT_FLOAT", "tensorShape": {}}}, "dtype": {"type": "DT_FLOAT"}}}, {"name": "v0/conv0/Pad/paddings", "op": "Const", "attr": {"value": {"tensor": {"dtype": "DT_INT32", "tensorShape": {"dim": [{"size": "4"}, {"size": "2"}]}}}, "dtype": {"type": "DT_INT32"}}}, {"name": "v0/Reshape/shape", "op": "Const", "attr": {"value": {"tensor": {"dtype": "DT_INT32", "tensorShape": {"dim": [{"size": "2"}]}}}, "dtype": {"type": "DT_INT32"}}}, {"name": "v0/affine0/weights", "op": "Const", "attr": {"value": {"tensor": {"dtype": "DT_FLOAT", "tensorShape": {"dim": [{"size": "1001"}, {"size": "2048"}]}}}, "dtype": {"type": "DT_FLOAT"}}}, {"name": "v0/affine0/biases", "op": "Const", "attr": {"value": {"tensor": {"dtype": "DT_FLOAT", "tensorShape": {"dim": [{"size": "1001"}]}}}, "dtype": {"type": "DT_FLOAT"}}}, {"name": "v0/conv0/conv2d/Conv2D_weights", "op": "Const", "attr": {"value": {"tensor": {"dtype": "DT_FLOAT", "tensorShape": {"dim": [{"size": "7"}, {"size": "7"}, {"size": "3"}, {"size": "64"}]}}}, "dtype": {"type": "DT_FLOAT"}}}, {"name": "v0/resnet_v114/conv49/conv2d/Conv2D_bn_offset", "op": "Const", "attr": {"value": {"tensor": {"dtype": "DT_FLOAT", "tensorShape": {"dim": [{"size": "2048"}]}}}, "dtype": {"type": "DT_FLOAT"}}}, {"name": "v0/conv0/conv2d/Conv2D_bn_offset", "op": "Const", "attr": {"value": {"tensor": {"dtype": "DT_FLOAT", "tensorShape": {"dim": [{"size": "64"}]}}}, "dtype": {"type": "DT_FLOAT"}}}, {"name": "v0/resnet_v10/conv1/conv2d/Conv2D_weights", "op": "Const", "attr": {"value": {"tensor": {"dtype": "DT_FLOAT", "tensorShape": {"dim": [{"size": "1"}, {"size": "1"}, {"size": "64"}, {"size": "256"}]}}}, "dtype": {"type": "DT_FLOAT"}}}, {"name": "v0/resnet_v111/conv38/conv2d/Conv2D_weights", "op": "Const", "attr": {"value": {"tensor": {"dtype": "DT_FLOAT", "tensorShape": {"dim": [{"size": "3"}, {"size": "3"}, {"size": "256"}, {"size": "256"}]}}}, "dtype": {"type": "DT_FLOAT"}}}, {"name": "v0/resnet_v10/conv1/conv2d/Conv2D_bn_offset", "op": "Const", "attr": {"value": {"tensor": {"dtype": "DT_FLOAT", "tensorShape": {"dim": [{"size": "256"}]}}}, "dtype": {"type": "DT_FLOAT"}}}, {"name": "v0/resnet_v10/conv2/conv2d/Conv2D_weights", "op": "Const", "attr": {"value": {"tensor": {"dtype": "DT_FLOAT", "tensorShape": {"dim": [{"size": "1"}, {"size": "1"}, {"size": "64"}, {"size": "64"}]}}}, "dtype": {"type": "DT_FLOAT"}}}, {"name": "v0/resnet_v10/conv2/conv2d/Conv2D_bn_offset", "op": "Const", "attr": {"value": {"tensor": {"dtype": "DT_FLOAT", "tensorShape": {"dim": [{"size": "64"}]}}}, "dtype": {"type": "DT_FLOAT"}}}, {"name": "v0/resnet_v111/conv38/conv2d/Conv2D_bn_offset", "op": "Const", "attr": {"value": {"tensor": {"dtype": "DT_FLOAT", "tensorShape": {"dim": [{"size": "256"}]}}}, "dtype": {"type": "DT_FLOAT"}}}, {"name": "v0/resnet_v10/conv3/conv2d/Conv2D_weights", "op": "Const", "attr": {"value": {"tensor": {"dtype": "DT_FLOAT", "tensorShape": {"dim": [{"size": "3"}, {"size": "3"}, {"size": "64"}, {"size": "64"}]}}}, "dtype": {"type": "DT_FLOAT"}}}, {"name": "v0/resnet_v10/conv3/conv2d/Conv2D_bn_offset", "op": "Const", "attr": {"value": {"tensor": {"dtype": "DT_FLOAT", "tensorShape": {"dim": [{"size": "64"}]}}}, "dtype": {"type": "DT_FLOAT"}}}, {"name": "v0/resnet_v10/conv4/conv2d/Conv2D_weights", "op": "Const", "attr": {"value": {"tensor": {"dtype": "DT_FLOAT", "tensorShape": {"dim": [{"size": "1"}, {"size": "1"}, {"size": "64"}, {"size": "256"}]}}}, "dtype": {"type": "DT_FLOAT"}}}, {"name": "v0/resnet_v111/conv39/conv2d/Conv2D_weights", "op": "Const", "attr": {"value": {"tensor": {"dtype": "DT_FLOAT", "tensorShape": {"dim": [{"size": "1"}, {"size": "1"}, {"size": "256"}, {"size": "1024"}]}}}, "dtype": {"type": "DT_FLOAT"}}}, {"name": "v0/resnet_v10/conv4/conv2d/Conv2D_bn_offset", "op": "Const", "attr": {"value": {"tensor": {"dtype": "DT_FLOAT", "tensorShape": {"dim": [{"size": "256"}]}}}, "dtype": {"type": "DT_FLOAT"}}}, {"name": "v0/resnet_v11/conv5/conv2d/Conv2D_weights", "op": "Const", "attr": {"value": {"tensor": {"dtype": "DT_FLOAT", "tensorShape": {"dim": [{"size": "1"}, {"size": "1"}, {"size": "256"}, {"size": "64"}]}}}, "dtype": {"type": "DT_FLOAT"}}}, {"name": "v0/resnet_v11/conv5/conv2d/Conv2D_bn_offset", "op": "Const", "attr": {"value": {"tensor": {"dtype": "DT_FLOAT", "tensorShape": {"dim": [{"size": "64"}]}}}, "dtype": {"type": "DT_FLOAT"}}}, {"name": "v0/resnet_v111/conv39/conv2d/Conv2D_bn_offset", "op": "Const", "attr": {"value": {"tensor": {"dtype": "DT_FLOAT", "tensorShape": {"dim": [{"size": "1024"}]}}}, "dtype": {"type": "DT_FLOAT"}}}, {"name": "v0/resnet_v11/conv6/conv2d/Conv2D_weights", "op": "Const", "attr": {"value": {"tensor": {"dtype": "DT_FLOAT", "tensorShape": {"dim": [{"size": "3"}, {"size": "3"}, {"size": "64"}, {"size": "64"}]}}}, "dtype": {"type": "DT_FLOAT"}}}, {"name": "v0/resnet_v11/conv6/conv2d/Conv2D_bn_offset", "op": "Const", "attr": {"value": {"tensor": {"dtype": "DT_FLOAT", "tensorShape": {"dim": [{"size": "64"}]}}}, "dtype": {"type": "DT_FLOAT"}}}, {"name": "v0/resnet_v11/conv7/conv2d/Conv2D_weights", "op": "Const", "attr": {"value": {"tensor": {"dtype": "DT_FLOAT", "tensorShape": {"dim": [{"size": "1"}, {"size": "1"}, {"size": "64"}, {"size": "256"}]}}}, "dtype": {"type": "DT_FLOAT"}}}, {"name": "v0/resnet_v11/conv7/conv2d/Conv2D_bn_offset", "op": "Const", "attr": {"value": {"tensor": {"dtype": "DT_FLOAT", "tensorShape": {"dim": [{"size": "256"}]}}}, "dtype": {"type": "DT_FLOAT"}}}, {"name": "v0/resnet_v12/conv8/conv2d/Conv2D_weights", "op": "Const", "attr": {"value": {"tensor": {"dtype": "DT_FLOAT", "tensorShape": {"dim": [{"size": "1"}, {"size": "1"}, {"size": "256"}, {"size": "64"}]}}}, "dtype": {"type": "DT_FLOAT"}}}, {"name": "v0/resnet_v112/conv40/conv2d/Conv2D_weights", "op": "Const", "attr": {"value": {"tensor": {"dtype": "DT_FLOAT", "tensorShape": {"dim": [{"size": "1"}, {"size": "1"}, {"size": "1024"}, {"size": "256"}]}}}, "dtype": {"type": "DT_FLOAT"}}}, {"name": "v0/resnet_v12/conv8/conv2d/Conv2D_bn_offset", "op": "Const", "attr": {"value": {"tensor": {"dtype": "DT_FLOAT", "tensorShape": {"dim": [{"size": "64"}]}}}, "dtype": {"type": "DT_FLOAT"}}}, {"name": "v0/resnet_v115/conv50/conv2d/Conv2D_weights", "op": "Const", "attr": {"value": {"tensor": {"dtype": "DT_FLOAT", "tensorShape": {"dim": [{"size": "1"}, {"size": "1"}, {"size": "2048"}, {"size": "512"}]}}}, "dtype": {"type": "DT_FLOAT"}}}, {"name": "v0/resnet_v12/conv9/conv2d/Conv2D_weights", "op": "Const", "attr": {"value": {"tensor": {"dtype": "DT_FLOAT", "tensorShape": {"dim": [{"size": "3"}, {"size": "3"}, {"size": "64"}, {"size": "64"}]}}}, "dtype": {"type": "DT_FLOAT"}}}, {"name": "v0/resnet_v112/conv40/conv2d/Conv2D_bn_offset", "op": "Const", "attr": {"value": {"tensor": {"dtype": "DT_FLOAT", "tensorShape": {"dim": [{"size": "256"}]}}}, "dtype": {"type": "DT_FLOAT"}}}, {"name": "v0/resnet_v12/conv9/conv2d/Conv2D_bn_offset", "op": "Const", "attr": {"value": {"tensor": {"dtype": "DT_FLOAT", "tensorShape": {"dim": [{"size": "64"}]}}}, "dtype": {"type": "DT_FLOAT"}}}, {"name": "v0/resnet_v12/conv10/conv2d/Conv2D_weights", "op": "Const", "attr": {"value": {"tensor": {"dtype": "DT_FLOAT", "tensorShape": {"dim": [{"size": "1"}, {"size": "1"}, {"size": "64"}, {"size": "256"}]}}}, "dtype": {"type": "DT_FLOAT"}}}, {"name": "v0/resnet_v12/conv10/conv2d/Conv2D_bn_offset", "op": "Const", "attr": {"value": {"tensor": {"dtype": "DT_FLOAT", "tensorShape": {"dim": [{"size": "256"}]}}}, "dtype": {"type": "DT_FLOAT"}}}, {"name": "v0/resnet_v13/conv11/conv2d/Conv2D_weights", "op": "Const", "attr": {"value": {"tensor": {"dtype": "DT_FLOAT", "tensorShape": {"dim": [{"size": "1"}, {"size": "1"}, {"size": "256"}, {"size": "512"}]}}}, "dtype": {"type": "DT_FLOAT"}}}, {"name": "v0/resnet_v112/conv41/conv2d/Conv2D_weights", "op": "Const", "attr": {"value": {"tensor": {"dtype": "DT_FLOAT", "tensorShape": {"dim": [{"size": "3"}, {"size": "3"}, {"size": "256"}, {"size": "256"}]}}}, "dtype": {"type": "DT_FLOAT"}}}, {"name": "v0/resnet_v13/conv11/conv2d/Conv2D_bn_offset", "op": "Const", "attr": {"value": {"tensor": {"dtype": "DT_FLOAT", "tensorShape": {"dim": [{"size": "512"}]}}}, "dtype": {"type": "DT_FLOAT"}}}, {"name": "v0/resnet_v13/conv12/conv2d/Conv2D_weights", "op": "Const", "attr": {"value": {"tensor": {"dtype": "DT_FLOAT", "tensorShape": {"dim": [{"size": "1"}, {"size": "1"}, {"size": "256"}, {"size": "128"}]}}}, "dtype": {"type": "DT_FLOAT"}}}, {"name": "v0/resnet_v115/conv50/conv2d/Conv2D_bn_offset", "op": "Const", "attr": {"value": {"tensor": {"dtype": "DT_FLOAT", "tensorShape": {"dim": [{"size": "512"}]}}}, "dtype": {"type": "DT_FLOAT"}}}, {"name": "v0/resnet_v13/conv12/conv2d/Conv2D_bn_offset", "op": "Const", "attr": {"value": {"tensor": {"dtype": "DT_FLOAT", "tensorShape": {"dim": [{"size": "128"}]}}}, "dtype": {"type": "DT_FLOAT"}}}, {"name": "v0/resnet_v112/conv41/conv2d/Conv2D_bn_offset", "op": "Const", "attr": {"value": {"tensor": {"dtype": "DT_FLOAT", "tensorShape": {"dim": [{"size": "256"}]}}}, "dtype": {"type": "DT_FLOAT"}}}, {"name": "v0/resnet_v13/conv13/conv2d/Conv2D_weights", "op": "Const", "attr": {"value": {"tensor": {"dtype": "DT_FLOAT", "tensorShape": {"dim": [{"size": "3"}, {"size": "3"}, {"size": "128"}, {"size": "128"}]}}}, "dtype": {"type": "DT_FLOAT"}}}, {"name": "v0/resnet_v13/conv13/conv2d/Conv2D_bn_offset", "op": "Const", "attr": {"value": {"tensor": {"dtype": "DT_FLOAT", "tensorShape": {"dim": [{"size": "128"}]}}}, "dtype": {"type": "DT_FLOAT"}}}, {"name": "v0/resnet_v13/conv14/conv2d/Conv2D_weights", "op": "Const", "attr": {"value": {"tensor": {"dtype": "DT_FLOAT", "tensorShape": {"dim": [{"size": "1"}, {"size": "1"}, {"size": "128"}, {"size": "512"}]}}}, "dtype": {"type": "DT_FLOAT"}}}, {"name": "v0/resnet_v112/conv42/conv2d/Conv2D_weights", "op": "Const", "attr": {"value": {"tensor": {"dtype": "DT_FLOAT", "tensorShape": {"dim": [{"size": "1"}, {"size": "1"}, {"size": "256"}, {"size": "1024"}]}}}, "dtype": {"type": "DT_FLOAT"}}}, {"name": "v0/resnet_v13/conv14/conv2d/Conv2D_bn_offset", "op": "Const", "attr": {"value": {"tensor": {"dtype": "DT_FLOAT", "tensorShape": {"dim": [{"size": "512"}]}}}, "dtype": {"type": "DT_FLOAT"}}}, {"name": "v0/resnet_v14/conv15/conv2d/Conv2D_weights", "op": "Const", "attr": {"value": {"tensor": {"dtype": "DT_FLOAT", "tensorShape": {"dim": [{"size": "1"}, {"size": "1"}, {"size": "512"}, {"size": "128"}]}}}, "dtype": {"type": "DT_FLOAT"}}}, {"name": "v0/resnet_v14/conv15/conv2d/Conv2D_bn_offset", "op": "Const", "attr": {"value": {"tensor": {"dtype": "DT_FLOAT", "tensorShape": {"dim": [{"size": "128"}]}}}, "dtype": {"type": "DT_FLOAT"}}}, {"name": "v0/resnet_v112/conv42/conv2d/Conv2D_bn_offset", "op": "Const", "attr": {"value": {"tensor": {"dtype": "DT_FLOAT", "tensorShape": {"dim": [{"size": "1024"}]}}}, "dtype": {"type": "DT_FLOAT"}}}, {"name": "v0/resnet_v14/conv16/conv2d/Conv2D_weights", "op": "Const", "attr": {"value": {"tensor": {"dtype": "DT_FLOAT", "tensorShape": {"dim": [{"size": "3"}, {"size": "3"}, {"size": "128"}, {"size": "128"}]}}}, "dtype": {"type": "DT_FLOAT"}}}, {"name": "v0/resnet_v14/conv16/conv2d/Conv2D_bn_offset", "op": "Const", "attr": {"value": {"tensor": {"dtype": "DT_FLOAT", "tensorShape": {"dim": [{"size": "128"}]}}}, "dtype": {"type": "DT_FLOAT"}}}, {"name": "v0/resnet_v14/conv17/conv2d/Conv2D_weights", "op": "Const", "attr": {"value": {"tensor": {"dtype": "DT_FLOAT", "tensorShape": {"dim": [{"size": "1"}, {"size": "1"}, {"size": "128"}, {"size": "512"}]}}}, "dtype": {"type": "DT_FLOAT"}}}, {"name": "v0/resnet_v14/conv17/conv2d/Conv2D_bn_offset", "op": "Const", "attr": {"value": {"tensor": {"dtype": "DT_FLOAT", "tensorShape": {"dim": [{"size": "512"}]}}}, "dtype": {"type": "DT_FLOAT"}}}, {"name": "v0/resnet_v15/conv18/conv2d/Conv2D_weights", "op": "Const", "attr": {"value": {"tensor": {"dtype": "DT_FLOAT", "tensorShape": {"dim": [{"size": "1"}, {"size": "1"}, {"size": "512"}, {"size": "128"}]}}}, "dtype": {"type": "DT_FLOAT"}}}, {"name": "v0/resnet_v113/conv43/conv2d/Conv2D_weights", "op": "Const", "attr": {"value": {"tensor": {"dtype": "DT_FLOAT", "tensorShape": {"dim": [{"size": "1"}, {"size": "1"}, {"size": "1024"}, {"size": "2048"}]}}}, "dtype": {"type": "DT_FLOAT"}}}, {"name": "v0/resnet_v15/conv18/conv2d/Conv2D_bn_offset", "op": "Const", "attr": {"value": {"tensor": {"dtype": "DT_FLOAT", "tensorShape": {"dim": [{"size": "128"}]}}}, "dtype": {"type": "DT_FLOAT"}}}, {"name": "v0/resnet_v115/conv51/conv2d/Conv2D_weights", "op": "Const", "attr": {"value": {"tensor": {"dtype": "DT_FLOAT", "tensorShape": {"dim": [{"size": "3"}, {"size": "3"}, {"size": "512"}, {"size": "512"}]}}}, "dtype": {"type": "DT_FLOAT"}}}, {"name": "v0/resnet_v15/conv19/conv2d/Conv2D_weights", "op": "Const", "attr": {"value": {"tensor": {"dtype": "DT_FLOAT", "tensorShape": {"dim": [{"size": "3"}, {"size": "3"}, {"size": "128"}, {"size": "128"}]}}}, "dtype": {"type": "DT_FLOAT"}}}, {"name": "v0/resnet_v113/conv43/conv2d/Conv2D_bn_offset", "op": "Const", "attr": {"value": {"tensor": {"dtype": "DT_FLOAT", "tensorShape": {"dim": [{"size": "2048"}]}}}, "dtype": {"type": "DT_FLOAT"}}}, {"name": "v0/resnet_v15/conv19/conv2d/Conv2D_bn_offset", "op": "Const", "attr": {"value": {"tensor": {"dtype": "DT_FLOAT", "tensorShape": {"dim": [{"size": "128"}]}}}, "dtype": {"type": "DT_FLOAT"}}}, {"name": "v0/resnet_v15/conv20/conv2d/Conv2D_weights", "op": "Const", "attr": {"value": {"tensor": {"dtype": "DT_FLOAT", "tensorShape": {"dim": [{"size": "1"}, {"size": "1"}, {"size": "128"}, {"size": "512"}]}}}, "dtype": {"type": "DT_FLOAT"}}}, {"name": "v0/resnet_v113/conv44/conv2d/Conv2D_weights", "op": "Const", "attr": {"value": {"tensor": {"dtype": "DT_FLOAT", "tensorShape": {"dim": [{"size": "1"}, {"size": "1"}, {"size": "1024"}, {"size": "512"}]}}}, "dtype": {"type": "DT_FLOAT"}}}, {"name": "v0/resnet_v15/conv20/conv2d/Conv2D_bn_offset", "op": "Const", "attr": {"value": {"tensor": {"dtype": "DT_FLOAT", "tensorShape": {"dim": [{"size": "512"}]}}}, "dtype": {"type": "DT_FLOAT"}}}, {"name": "v0/resnet_v16/conv21/conv2d/Conv2D_weights", "op": "Const", "attr": {"value": {"tensor": {"dtype": "DT_FLOAT", "tensorShape": {"dim": [{"size": "1"}, {"size": "1"}, {"size": "512"}, {"size": "128"}]}}}, "dtype": {"type": "DT_FLOAT"}}}, {"name": "v0/resnet_v16/conv21/conv2d/Conv2D_bn_offset", "op": "Const", "attr": {"value": {"tensor": {"dtype": "DT_FLOAT", "tensorShape": {"dim": [{"size": "128"}]}}}, "dtype": {"type": "DT_FLOAT"}}}, {"name": "v0/resnet_v113/conv44/conv2d/Conv2D_bn_offset", "op": "Const", "attr": {"value": {"tensor": {"dtype": "DT_FLOAT", "tensorShape": {"dim": [{"size": "512"}]}}}, "dtype": {"type": "DT_FLOAT"}}}, {"name": "v0/resnet_v16/conv22/conv2d/Conv2D_weights", "op": "Const", "attr": {"value": {"tensor": {"dtype": "DT_FLOAT", "tensorShape": {"dim": [{"size": "3"}, {"size": "3"}, {"size": "128"}, {"size": "128"}]}}}, "dtype": {"type": "DT_FLOAT"}}}, {"name": "v0/resnet_v115/conv51/conv2d/Conv2D_bn_offset", "op": "Const", "attr": {"value": {"tensor": {"dtype": "DT_FLOAT", "tensorShape": {"dim": [{"size": "512"}]}}}, "dtype": {"type": "DT_FLOAT"}}}, {"name": "v0/resnet_v16/conv22/conv2d/Conv2D_bn_offset", "op": "Const", "attr": {"value": {"tensor": {"dtype": "DT_FLOAT", "tensorShape": {"dim": [{"size": "128"}]}}}, "dtype": {"type": "DT_FLOAT"}}}, {"name": "v0/resnet_v16/conv23/conv2d/Conv2D_weights", "op": "Const", "attr": {"value": {"tensor": {"dtype": "DT_FLOAT", "tensorShape": {"dim": [{"size": "1"}, {"size": "1"}, {"size": "128"}, {"size": "512"}]}}}, "dtype": {"type": "DT_FLOAT"}}}, {"name": "v0/resnet_v113/conv45/conv2d/Conv2D_weights", "op": "Const", "attr": {"value": {"tensor": {"dtype": "DT_FLOAT", "tensorShape": {"dim": [{"size": "3"}, {"size": "3"}, {"size": "512"}, {"size": "512"}]}}}, "dtype": {"type": "DT_FLOAT"}}}, {"name": "v0/resnet_v16/conv23/conv2d/Conv2D_bn_offset", "op": "Const", "attr": {"value": {"tensor": {"dtype": "DT_FLOAT", "tensorShape": {"dim": [{"size": "512"}]}}}, "dtype": {"type": "DT_FLOAT"}}}, {"name": "v0/resnet_v17/conv24/conv2d/Conv2D_weights", "op": "Const", "attr": {"value": {"tensor": {"dtype": "DT_FLOAT", "tensorShape": {"dim": [{"size": "1"}, {"size": "1"}, {"size": "512"}, {"size": "1024"}]}}}, "dtype": {"type": "DT_FLOAT"}}}, {"name": "v0/resnet_v17/conv24/conv2d/Conv2D_bn_offset", "op": "Const", "attr": {"value": {"tensor": {"dtype": "DT_FLOAT", "tensorShape": {"dim": [{"size": "1024"}]}}}, "dtype": {"type": "DT_FLOAT"}}}, {"name": "v0/resnet_v17/conv25/conv2d/Conv2D_weights", "op": "Const", "attr": {"value": {"tensor": {"dtype": "DT_FLOAT", "tensorShape": {"dim": [{"size": "1"}, {"size": "1"}, {"size": "512"}, {"size": "256"}]}}}, "dtype": {"type": "DT_FLOAT"}}}, {"name": "v0/resnet_v113/conv45/conv2d/Conv2D_bn_offset", "op": "Const", "attr": {"value": {"tensor": {"dtype": "DT_FLOAT", "tensorShape": {"dim": [{"size": "512"}]}}}, "dtype": {"type": "DT_FLOAT"}}}, {"name": "v0/resnet_v17/conv25/conv2d/Conv2D_bn_offset", "op": "Const", "attr": {"value": {"tensor": {"dtype": "DT_FLOAT", "tensorShape": {"dim": [{"size": "256"}]}}}, "dtype": {"type": "DT_FLOAT"}}}, {"name": "v0/resnet_v17/conv26/conv2d/Conv2D_weights", "op": "Const", "attr": {"value": {"tensor": {"dtype": "DT_FLOAT", "tensorShape": {"dim": [{"size": "3"}, {"size": "3"}, {"size": "256"}, {"size": "256"}]}}}, "dtype": {"type": "DT_FLOAT"}}}, {"name": "v0/resnet_v17/conv26/conv2d/Conv2D_bn_offset", "op": "Const", "attr": {"value": {"tensor": {"dtype": "DT_FLOAT", "tensorShape": {"dim": [{"size": "256"}]}}}, "dtype": {"type": "DT_FLOAT"}}}, {"name": "v0/resnet_v113/conv46/conv2d/Conv2D_weights", "op": "Const", "attr": {"value": {"tensor": {"dtype": "DT_FLOAT", "tensorShape": {"dim": [{"size": "1"}, {"size": "1"}, {"size": "512"}, {"size": "2048"}]}}}, "dtype": {"type": "DT_FLOAT"}}}, {"name": "v0/resnet_v17/conv27/conv2d/Conv2D_weights", "op": "Const", "attr": {"value": {"tensor": {"dtype": "DT_FLOAT", "tensorShape": {"dim": [{"size": "1"}, {"size": "1"}, {"size": "256"}, {"size": "1024"}]}}}, "dtype": {"type": "DT_FLOAT"}}}, {"name": "v0/resnet_v115/conv52/conv2d/Conv2D_weights", "op": "Const", "attr": {"value": {"tensor": {"dtype": "DT_FLOAT", "tensorShape": {"dim": [{"size": "1"}, {"size": "1"}, {"size": "512"}, {"size": "2048"}]}}}, "dtype": {"type": "DT_FLOAT"}}}, {"name": "v0/resnet_v17/conv27/conv2d/Conv2D_bn_offset", "op": "Const", "attr": {"value": {"tensor": {"dtype": "DT_FLOAT", "tensorShape": {"dim": [{"size": "1024"}]}}}, "dtype": {"type": "DT_FLOAT"}}}, {"name": "v0/resnet_v18/conv28/conv2d/Conv2D_weights", "op": "Const", "attr": {"value": {"tensor": {"dtype": "DT_FLOAT", "tensorShape": {"dim": [{"size": "1"}, {"size": "1"}, {"size": "1024"}, {"size": "256"}]}}}, "dtype": {"type": "DT_FLOAT"}}}, {"name": "v0/resnet_v113/conv46/conv2d/Conv2D_bn_offset", "op": "Const", "attr": {"value": {"tensor": {"dtype": "DT_FLOAT", "tensorShape": {"dim": [{"size": "2048"}]}}}, "dtype": {"type": "DT_FLOAT"}}}, {"name": "v0/resnet_v18/conv28/conv2d/Conv2D_bn_offset", "op": "Const", "attr": {"value": {"tensor": {"dtype": "DT_FLOAT", "tensorShape": {"dim": [{"size": "256"}]}}}, "dtype": {"type": "DT_FLOAT"}}}, {"name": "v0/resnet_v18/conv29/conv2d/Conv2D_weights", "op": "Const", "attr": {"value": {"tensor": {"dtype": "DT_FLOAT", "tensorShape": {"dim": [{"size": "3"}, {"size": "3"}, {"size": "256"}, {"size": "256"}]}}}, "dtype": {"type": "DT_FLOAT"}}}, {"name": "v0/resnet_v18/conv29/conv2d/Conv2D_bn_offset", "op": "Const", "attr": {"value": {"tensor": {"dtype": "DT_FLOAT", "tensorShape": {"dim": [{"size": "256"}]}}}, "dtype": {"type": "DT_FLOAT"}}}, {"name": "v0/resnet_v18/conv30/conv2d/Conv2D_weights", "op": "Const", "attr": {"value": {"tensor": {"dtype": "DT_FLOAT", "tensorShape": {"dim": [{"size": "1"}, {"size": "1"}, {"size": "256"}, {"size": "1024"}]}}}, "dtype": {"type": "DT_FLOAT"}}}, {"name": "v0/resnet_v114/conv47/conv2d/Conv2D_weights", "op": "Const", "attr": {"value": {"tensor": {"dtype": "DT_FLOAT", "tensorShape": {"dim": [{"size": "1"}, {"size": "1"}, {"size": "2048"}, {"size": "512"}]}}}, "dtype": {"type": "DT_FLOAT"}}}, {"name": "v0/resnet_v18/conv30/conv2d/Conv2D_bn_offset", "op": "Const", "attr": {"value": {"tensor": {"dtype": "DT_FLOAT", "tensorShape": {"dim": [{"size": "1024"}]}}}, "dtype": {"type": "DT_FLOAT"}}}, {"name": "v0/resnet_v19/conv31/conv2d/Conv2D_weights", "op": "Const", "attr": {"value": {"tensor": {"dtype": "DT_FLOAT", "tensorShape": {"dim": [{"size": "1"}, {"size": "1"}, {"size": "1024"}, {"size": "256"}]}}}, "dtype": {"type": "DT_FLOAT"}}}, {"name": "v0/resnet_v19/conv31/conv2d/Conv2D_bn_offset", "op": "Const", "attr": {"value": {"tensor": {"dtype": "DT_FLOAT", "tensorShape": {"dim": [{"size": "256"}]}}}, "dtype": {"type": "DT_FLOAT"}}}, {"name": "v0/resnet_v114/conv47/conv2d/Conv2D_bn_offset", "op": "Const", "attr": {"value": {"tensor": {"dtype": "DT_FLOAT", "tensorShape": {"dim": [{"size": "512"}]}}}, "dtype": {"type": "DT_FLOAT"}}}, {"name": "v0/resnet_v19/conv32/conv2d/Conv2D_weights", "op": "Const", "attr": {"value": {"tensor": {"dtype": "DT_FLOAT", "tensorShape": {"dim": [{"size": "3"}, {"size": "3"}, {"size": "256"}, {"size": "256"}]}}}, "dtype": {"type": "DT_FLOAT"}}}, {"name": "v0/resnet_v115/conv52/conv2d/Conv2D_bn_offset", "op": "Const", "attr": {"value": {"tensor": {"dtype": "DT_FLOAT", "tensorShape": {"dim": [{"size": "2048"}]}}}, "dtype": {"type": "DT_FLOAT"}}}, {"name": "v0/resnet_v19/conv32/conv2d/Conv2D_bn_offset", "op": "Const", "attr": {"value": {"tensor": {"dtype": "DT_FLOAT", "tensorShape": {"dim": [{"size": "256"}]}}}, "dtype": {"type": "DT_FLOAT"}}}, {"name": "v0/resnet_v19/conv33/conv2d/Conv2D_weights", "op": "Const", "attr": {"value": {"tensor": {"dtype": "DT_FLOAT", "tensorShape": {"dim": [{"size": "1"}, {"size": "1"}, {"size": "256"}, {"size": "1024"}]}}}, "dtype": {"type": "DT_FLOAT"}}}, {"name": "v0/resnet_v114/conv48/conv2d/Conv2D_weights", "op": "Const", "attr": {"value": {"tensor": {"dtype": "DT_FLOAT", "tensorShape": {"dim": [{"size": "3"}, {"size": "3"}, {"size": "512"}, {"size": "512"}]}}}, "dtype": {"type": "DT_FLOAT"}}}, {"name": "v0/resnet_v19/conv33/conv2d/Conv2D_bn_offset", "op": "Const", "attr": {"value": {"tensor": {"dtype": "DT_FLOAT", "tensorShape": {"dim": [{"size": "1024"}]}}}, "dtype": {"type": "DT_FLOAT"}}}, {"name": "v0/resnet_v110/conv34/conv2d/Conv2D_weights", "op": "Const", "attr": {"value": {"tensor": {"dtype": "DT_FLOAT", "tensorShape": {"dim": [{"size": "1"}, {"size": "1"}, {"size": "1024"}, {"size": "256"}]}}}, "dtype": {"type": "DT_FLOAT"}}}, {"name": "v0/resnet_v110/conv34/conv2d/Conv2D_bn_offset", "op": "Const", "attr": {"value": {"tensor": {"dtype": "DT_FLOAT", "tensorShape": {"dim": [{"size": "256"}]}}}, "dtype": {"type": "DT_FLOAT"}}}, {"name": "v0/resnet_v114/conv48/conv2d/Conv2D_bn_offset", "op": "Const", "attr": {"value": {"tensor": {"dtype": "DT_FLOAT", "tensorShape": {"dim": [{"size": "512"}]}}}, "dtype": {"type": "DT_FLOAT"}}}, {"name": "v0/resnet_v110/conv35/conv2d/Conv2D_weights", "op": "Const", "attr": {"value": {"tensor": {"dtype": "DT_FLOAT", "tensorShape": {"dim": [{"size": "3"}, {"size": "3"}, {"size": "256"}, {"size": "256"}]}}}, "dtype": {"type": "DT_FLOAT"}}}, {"name": "v0/resnet_v110/conv35/conv2d/Conv2D_bn_offset", "op": "Const", "attr": {"value": {"tensor": {"dtype": "DT_FLOAT", "tensorShape": {"dim": [{"size": "256"}]}}}, "dtype": {"type": "DT_FLOAT"}}}, {"name": "v0/resnet_v110/conv36/conv2d/Conv2D_weights", "op": "Const", "attr": {"value": {"tensor": {"dtype": "DT_FLOAT", "tensorShape": {"dim": [{"size": "1"}, {"size": "1"}, {"size": "256"}, {"size": "1024"}]}}}, "dtype": {"type": "DT_FLOAT"}}}, {"name": "v0/resnet_v114/conv49/conv2d/Conv2D_weights", "op": "Const", "attr": {"value": {"tensor": {"dtype": "DT_FLOAT", "tensorShape": {"dim": [{"size": "1"}, {"size": "1"}, {"size": "512"}, {"size": "2048"}]}}}, "dtype": {"type": "DT_FLOAT"}}}, {"name": "v0/resnet_v110/conv36/conv2d/Conv2D_bn_offset", "op": "Const", "attr": {"value": {"tensor": {"dtype": "DT_FLOAT", "tensorShape": {"dim": [{"size": "1024"}]}}}, "dtype": {"type": "DT_FLOAT"}}}, {"name": "v0/resnet_v111/conv37/conv2d/Conv2D_weights", "op": "Const", "attr": {"value": {"tensor": {"dtype": "DT_FLOAT", "tensorShape": {"dim": [{"size": "1"}, {"size": "1"}, {"size": "1024"}, {"size": "256"}]}}}, "dtype": {"type": "DT_FLOAT"}}}, {"name": "v0/resnet_v111/conv37/conv2d/Conv2D_bn_offset", "op": "Const", "attr": {"value": {"tensor": {"dtype": "DT_FLOAT", "tensorShape": {"dim": [{"size": "256"}]}}}, "dtype": {"type": "DT_FLOAT"}}}, {"name": "Mul", "op": "Mul", "input": ["input", "Mul/y"], "attr": {"T": {"type": "DT_FLOAT"}}}, {"name": "Sub", "op": "Sub", "input": ["Mul", "Sub/y"], "attr": {"T": {"type": "DT_FLOAT"}}}, {"name": "Mul_1", "op": "Mul", "input": ["Sub", "Mul_1/y"], "attr": {"T": {"type": "DT_FLOAT"}}}, {"name": "v0/conv0/Pad", "op": "Pad", "input": ["Mul_1", "v0/conv0/Pad/paddings"], "attr": {"T": {"type": "DT_FLOAT"}, "Tpaddings": {"type": "DT_INT32"}}}, {"name": "v0/conv0/Relu", "op": "_FusedConv2D", "input": ["v0/conv0/Pad", "v0/conv0/conv2d/Conv2D_weights", "v0/conv0/conv2d/Conv2D_bn_offset"], "device": "/device:CPU:0", "attr": {"dilations": {"list": {"i": ["1", "1", "1", "1"]}}, "T": {"type": "DT_FLOAT"}, "data_format": {"s": "TkhXQw=="}, "strides": {"list": {"i": ["1", "2", "2", "1"]}}, "use_cudnn_on_gpu": {"b": true}, "explicit_paddings": {"list": {}}, "num_args": {"i": "1"}, "epsilon": {"f": 0.0}, "padding": {"s": "VkFMSUQ="}, "fused_ops": {"list": {"s": ["Qmlhc0FkZA==", "UmVsdQ=="]}}}}, {"name": "v0/mpool0/MaxPool", "op": "MaxPool", "input": ["v0/conv0/Relu"], "attr": {"ksize": {"list": {"i": ["1", "3", "3", "1"]}}, "padding": {"s": "VkFMSUQ="}, "T": {"type": "DT_FLOAT"}, "strides": {"list": {"i": ["1", "2", "2", "1"]}}, "data_format": {"s": "TkhXQw=="}}}, {"name": "v0/resnet_v10/conv1/batchnorm1/FusedBatchNorm", "op": "_FusedConv2D", "input": ["v0/mpool0/MaxPool", "v0/resnet_v10/conv1/conv2d/Conv2D_weights", "v0/resnet_v10/conv1/conv2d/Conv2D_bn_offset"], "device": "/device:CPU:0", "attr": {"dilations": {"list": {"i": ["1", "1", "1", "1"]}}, "T": {"type": "DT_FLOAT"}, "data_format": {"s": "TkhXQw=="}, "strides": {"list": {"i": ["1", "1", "1", "1"]}}, "use_cudnn_on_gpu": {"b": true}, "explicit_paddings": {"list": {}}, "num_args": {"i": "1"}, "epsilon": {"f": 0.0}, "padding": {"s": "U0FNRQ=="}, "fused_ops": {"list": {"s": ["Qmlhc0FkZA=="]}}}}, {"name": "v0/resnet_v10/conv2/Relu", "op": "_FusedConv2D", "input": ["v0/mpool0/MaxPool", "v0/resnet_v10/conv2/conv2d/Conv2D_weights", "v0/resnet_v10/conv2/conv2d/Conv2D_bn_offset"], "device": "/device:CPU:0", "attr": {"dilations": {"list": {"i": ["1", "1", "1", "1"]}}, "T": {"type": "DT_FLOAT"}, "data_format": {"s": "TkhXQw=="}, "strides": {"list": {"i": ["1", "1", "1", "1"]}}, "use_cudnn_on_gpu": {"b": true}, "explicit_paddings": {"list": {}}, "num_args": {"i": "1"}, "epsilon": {"f": 0.0}, "padding": {"s": "U0FNRQ=="}, "fused_ops": {"list": {"s": ["Qmlhc0FkZA==", "UmVsdQ=="]}}}}, {"name": "v0/resnet_v10/conv3/Relu", "op": "_FusedConv2D", "input": ["v0/resnet_v10/conv2/Relu", "v0/resnet_v10/conv3/conv2d/Conv2D_weights", "v0/resnet_v10/conv3/conv2d/Conv2D_bn_offset"], "device": "/device:CPU:0", "attr": {"dilations": {"list": {"i": ["1", "1", "1", "1"]}}, "T": {"type": "DT_FLOAT"}, "data_format": {"s": "TkhXQw=="}, "strides": {"list": {"i": ["1", "1", "1", "1"]}}, "use_cudnn_on_gpu": {"b": true}, "explicit_paddings": {"list": {}}, "num_args": {"i": "1"}, "epsilon": {"f": 0.0}, "padding": {"s": "U0FNRQ=="}, "fused_ops": {"list": {"s": ["Qmlhc0FkZA==", "UmVsdQ=="]}}}}, {"name": "v0/resnet_v10/conv4/batchnorm4/FusedBatchNorm", "op": "_FusedConv2D", "input": ["v0/resnet_v10/conv3/Relu", "v0/resnet_v10/conv4/conv2d/Conv2D_weights", "v0/resnet_v10/conv4/conv2d/Conv2D_bn_offset"], "device": "/device:CPU:0", "attr": {"dilations": {"list": {"i": ["1", "1", "1", "1"]}}, "T": {"type": "DT_FLOAT"}, "data_format": {"s": "TkhXQw=="}, "strides": {"list": {"i": ["1", "1", "1", "1"]}}, "use_cudnn_on_gpu": {"b": true}, "explicit_paddings": {"list": {}}, "num_args": {"i": "1"}, "epsilon": {"f": 0.0}, "padding": {"s": "U0FNRQ=="}, "fused_ops": {"list": {"s": ["Qmlhc0FkZA=="]}}}}, {"name": "v0/resnet_v10/AddN", "op": "AddN", "input": ["v0/resnet_v10/conv1/batchnorm1/FusedBatchNorm", "v0/resnet_v10/conv4/batchnorm4/FusedBatchNorm"], "attr": {"T": {"type": "DT_FLOAT"}, "N": {"i": "2"}}}, {"name": "v0/resnet_v10/Relu", "op": "Relu", "input": ["v0/resnet_v10/AddN"], "attr": {"T": {"type": "DT_FLOAT"}}}, {"name": "v0/resnet_v11/conv5/Relu", "op": "_FusedConv2D", "input": ["v0/resnet_v10/Relu", "v0/resnet_v11/conv5/conv2d/Conv2D_weights", "v0/resnet_v11/conv5/conv2d/Conv2D_bn_offset"], "device": "/device:CPU:0", "attr": {"dilations": {"list": {"i": ["1", "1", "1", "1"]}}, "T": {"type": "DT_FLOAT"}, "data_format": {"s": "TkhXQw=="}, "strides": {"list": {"i": ["1", "1", "1", "1"]}}, "use_cudnn_on_gpu": {"b": true}, "explicit_paddings": {"list": {}}, "num_args": {"i": "1"}, "epsilon": {"f": 0.0}, "padding": {"s": "U0FNRQ=="}, "fused_ops": {"list": {"s": ["Qmlhc0FkZA==", "UmVsdQ=="]}}}}, {"name": "v0/resnet_v11/conv6/Relu", "op": "_FusedConv2D", "input": ["v0/resnet_v11/conv5/Relu", "v0/resnet_v11/conv6/conv2d/Conv2D_weights", "v0/resnet_v11/conv6/conv2d/Conv2D_bn_offset"], "device": "/device:CPU:0", "attr": {"dilations": {"list": {"i": ["1", "1", "1", "1"]}}, "T": {"type": "DT_FLOAT"}, "data_format": {"s": "TkhXQw=="}, "strides": {"list": {"i": ["1", "1", "1", "1"]}}, "use_cudnn_on_gpu": {"b": true}, "explicit_paddings": {"list": {}}, "num_args": {"i": "1"}, "epsilon": {"f": 0.0}, "padding": {"s": "U0FNRQ=="}, "fused_ops": {"list": {"s": ["Qmlhc0FkZA==", "UmVsdQ=="]}}}}, {"name": "v0/resnet_v11/conv7/batchnorm7/FusedBatchNorm", "op": "_FusedConv2D", "input": ["v0/resnet_v11/conv6/Relu", "v0/resnet_v11/conv7/conv2d/Conv2D_weights", "v0/resnet_v11/conv7/conv2d/Conv2D_bn_offset"], "device": "/device:CPU:0", "attr": {"dilations": {"list": {"i": ["1", "1", "1", "1"]}}, "T": {"type": "DT_FLOAT"}, "data_format": {"s": "TkhXQw=="}, "strides": {"list": {"i": ["1", "1", "1", "1"]}}, "use_cudnn_on_gpu": {"b": true}, "explicit_paddings": {"list": {}}, "num_args": {"i": "1"}, "epsilon": {"f": 0.0}, "padding": {"s": "U0FNRQ=="}, "fused_ops": {"list": {"s": ["Qmlhc0FkZA=="]}}}}, {"name": "v0/resnet_v11/AddN", "op": "AddN", "input": ["v0/resnet_v10/Relu", "v0/resnet_v11/conv7/batchnorm7/FusedBatchNorm"], "attr": {"T": {"type": "DT_FLOAT"}, "N": {"i": "2"}}}, {"name": "v0/resnet_v11/Relu", "op": "Relu", "input": ["v0/resnet_v11/AddN"], "attr": {"T": {"type": "DT_FLOAT"}}}, {"name": "v0/resnet_v12/conv8/Relu", "op": "_FusedConv2D", "input": ["v0/resnet_v11/Relu", "v0/resnet_v12/conv8/conv2d/Conv2D_weights", "v0/resnet_v12/conv8/conv2d/Conv2D_bn_offset"], "device": "/device:CPU:0", "attr": {"dilations": {"list": {"i": ["1", "1", "1", "1"]}}, "T": {"type": "DT_FLOAT"}, "data_format": {"s": "TkhXQw=="}, "strides": {"list": {"i": ["1", "1", "1", "1"]}}, "use_cudnn_on_gpu": {"b": true}, "explicit_paddings": {"list": {}}, "num_args": {"i": "1"}, "epsilon": {"f": 0.0}, "padding": {"s": "U0FNRQ=="}, "fused_ops": {"list": {"s": ["Qmlhc0FkZA==", "UmVsdQ=="]}}}}, {"name": "v0/resnet_v12/conv9/Relu", "op": "_FusedConv2D", "input": ["v0/resnet_v12/conv8/Relu", "v0/resnet_v12/conv9/conv2d/Conv2D_weights", "v0/resnet_v12/conv9/conv2d/Conv2D_bn_offset"], "device": "/device:CPU:0", "attr": {"dilations": {"list": {"i": ["1", "1", "1", "1"]}}, "T": {"type": "DT_FLOAT"}, "data_format": {"s": "TkhXQw=="}, "strides": {"list": {"i": ["1", "1", "1", "1"]}}, "use_cudnn_on_gpu": {"b": true}, "explicit_paddings": {"list": {}}, "num_args": {"i": "1"}, "epsilon": {"f": 0.0}, "padding": {"s": "U0FNRQ=="}, "fused_ops": {"list": {"s": ["Qmlhc0FkZA==", "UmVsdQ=="]}}}}, {"name": "v0/resnet_v12/conv10/batchnorm10/FusedBatchNorm", "op": "_FusedConv2D", "input": ["v0/resnet_v12/conv9/Relu", "v0/resnet_v12/conv10/conv2d/Conv2D_weights", "v0/resnet_v12/conv10/conv2d/Conv2D_bn_offset"], "device": "/device:CPU:0", "attr": {"dilations": {"list": {"i": ["1", "1", "1", "1"]}}, "T": {"type": "DT_FLOAT"}, "data_format": {"s": "TkhXQw=="}, "strides": {"list": {"i": ["1", "1", "1", "1"]}}, "use_cudnn_on_gpu": {"b": true}, "explicit_paddings": {"list": {}}, "num_args": {"i": "1"}, "epsilon": {"f": 0.0}, "padding": {"s": "U0FNRQ=="}, "fused_ops": {"list": {"s": ["Qmlhc0FkZA=="]}}}}, {"name": "v0/resnet_v12/AddN", "op": "AddN", "input": ["v0/resnet_v11/Relu", "v0/resnet_v12/conv10/batchnorm10/FusedBatchNorm"], "attr": {"T": {"type": "DT_FLOAT"}, "N": {"i": "2"}}}, {"name": "v0/resnet_v12/Relu", "op": "Relu", "input": ["v0/resnet_v12/AddN"], "attr": {"T": {"type": "DT_FLOAT"}}}, {"name": "v0/resnet_v13/conv11/batchnorm11/FusedBatchNorm", "op": "_FusedConv2D", "input": ["v0/resnet_v12/Relu", "v0/resnet_v13/conv11/conv2d/Conv2D_weights", "v0/resnet_v13/conv11/conv2d/Conv2D_bn_offset"], "device": "/device:CPU:0", "attr": {"dilations": {"list": {"i": ["1", "1", "1", "1"]}}, "T": {"type": "DT_FLOAT"}, "data_format": {"s": "TkhXQw=="}, "strides": {"list": {"i": ["1", "2", "2", "1"]}}, "use_cudnn_on_gpu": {"b": true}, "explicit_paddings": {"list": {}}, "num_args": {"i": "1"}, "epsilon": {"f": 0.0}, "padding": {"s": "U0FNRQ=="}, "fused_ops": {"list": {"s": ["Qmlhc0FkZA=="]}}}}, {"name": "v0/resnet_v13/conv12/Relu", "op": "_FusedConv2D", "input": ["v0/resnet_v12/Relu", "v0/resnet_v13/conv12/conv2d/Conv2D_weights", "v0/resnet_v13/conv12/conv2d/Conv2D_bn_offset"], "device": "/device:CPU:0", "attr": {"dilations": {"list": {"i": ["1", "1", "1", "1"]}}, "T": {"type": "DT_FLOAT"}, "data_format": {"s": "TkhXQw=="}, "strides": {"list": {"i": ["1", "2", "2", "1"]}}, "use_cudnn_on_gpu": {"b": true}, "explicit_paddings": {"list": {}}, "num_args": {"i": "1"}, "epsilon": {"f": 0.0}, "padding": {"s": "U0FNRQ=="}, "fused_ops": {"list": {"s": ["Qmlhc0FkZA==", "UmVsdQ=="]}}}}, {"name": "v0/resnet_v13/conv13/Relu", "op": "_FusedConv2D", "input": ["v0/resnet_v13/conv12/Relu", "v0/resnet_v13/conv13/conv2d/Conv2D_weights", "v0/resnet_v13/conv13/conv2d/Conv2D_bn_offset"], "device": "/device:CPU:0", "attr": {"dilations": {"list": {"i": ["1", "1", "1", "1"]}}, "T": {"type": "DT_FLOAT"}, "data_format": {"s": "TkhXQw=="}, "strides": {"list": {"i": ["1", "1", "1", "1"]}}, "use_cudnn_on_gpu": {"b": true}, "explicit_paddings": {"list": {}}, "num_args": {"i": "1"}, "epsilon": {"f": 0.0}, "padding": {"s": "U0FNRQ=="}, "fused_ops": {"list": {"s": ["Qmlhc0FkZA==", "UmVsdQ=="]}}}}, {"name": "v0/resnet_v13/conv14/batchnorm14/FusedBatchNorm", "op": "_FusedConv2D", "input": ["v0/resnet_v13/conv13/Relu", "v0/resnet_v13/conv14/conv2d/Conv2D_weights", "v0/resnet_v13/conv14/conv2d/Conv2D_bn_offset"], "device": "/device:CPU:0", "attr": {"dilations": {"list": {"i": ["1", "1", "1", "1"]}}, "T": {"type": "DT_FLOAT"}, "data_format": {"s": "TkhXQw=="}, "strides": {"list": {"i": ["1", "1", "1", "1"]}}, "use_cudnn_on_gpu": {"b": true}, "explicit_paddings": {"list": {}}, "num_args": {"i": "1"}, "epsilon": {"f": 0.0}, "padding": {"s": "U0FNRQ=="}, "fused_ops": {"list": {"s": ["Qmlhc0FkZA=="]}}}}, {"name": "v0/resnet_v13/AddN", "op": "AddN", "input": ["v0/resnet_v13/conv11/batchnorm11/FusedBatchNorm", "v0/resnet_v13/conv14/batchnorm14/FusedBatchNorm"], "attr": {"T": {"type": "DT_FLOAT"}, "N": {"i": "2"}}}, {"name": "v0/resnet_v13/Relu", "op": "Relu", "input": ["v0/resnet_v13/AddN"], "attr": {"T": {"type": "DT_FLOAT"}}}, {"name": "v0/resnet_v14/conv15/Relu", "op": "_FusedConv2D", "input": ["v0/resnet_v13/Relu", "v0/resnet_v14/conv15/conv2d/Conv2D_weights", "v0/resnet_v14/conv15/conv2d/Conv2D_bn_offset"], "device": "/device:CPU:0", "attr": {"dilations": {"list": {"i": ["1", "1", "1", "1"]}}, "T": {"type": "DT_FLOAT"}, "data_format": {"s": "TkhXQw=="}, "strides": {"list": {"i": ["1", "1", "1", "1"]}}, "use_cudnn_on_gpu": {"b": true}, "explicit_paddings": {"list": {}}, "num_args": {"i": "1"}, "epsilon": {"f": 0.0}, "padding": {"s": "U0FNRQ=="}, "fused_ops": {"list": {"s": ["Qmlhc0FkZA==", "UmVsdQ=="]}}}}, {"name": "v0/resnet_v14/conv16/Relu", "op": "_FusedConv2D", "input": ["v0/resnet_v14/conv15/Relu", "v0/resnet_v14/conv16/conv2d/Conv2D_weights", "v0/resnet_v14/conv16/conv2d/Conv2D_bn_offset"], "device": "/device:CPU:0", "attr": {"dilations": {"list": {"i": ["1", "1", "1", "1"]}}, "T": {"type": "DT_FLOAT"}, "data_format": {"s": "TkhXQw=="}, "strides": {"list": {"i": ["1", "1", "1", "1"]}}, "use_cudnn_on_gpu": {"b": true}, "explicit_paddings": {"list": {}}, "num_args": {"i": "1"}, "epsilon": {"f": 0.0}, "padding": {"s": "U0FNRQ=="}, "fused_ops": {"list": {"s": ["Qmlhc0FkZA==", "UmVsdQ=="]}}}}, {"name": "v0/resnet_v14/conv17/batchnorm17/FusedBatchNorm", "op": "_FusedConv2D", "input": ["v0/resnet_v14/conv16/Relu", "v0/resnet_v14/conv17/conv2d/Conv2D_weights", "v0/resnet_v14/conv17/conv2d/Conv2D_bn_offset"], "device": "/device:CPU:0", "attr": {"dilations": {"list": {"i": ["1", "1", "1", "1"]}}, "T": {"type": "DT_FLOAT"}, "data_format": {"s": "TkhXQw=="}, "strides": {"list": {"i": ["1", "1", "1", "1"]}}, "use_cudnn_on_gpu": {"b": true}, "explicit_paddings": {"list": {}}, "num_args": {"i": "1"}, "epsilon": {"f": 0.0}, "padding": {"s": "U0FNRQ=="}, "fused_ops": {"list": {"s": ["Qmlhc0FkZA=="]}}}}, {"name": "v0/resnet_v14/AddN", "op": "AddN", "input": ["v0/resnet_v13/Relu", "v0/resnet_v14/conv17/batchnorm17/FusedBatchNorm"], "attr": {"T": {"type": "DT_FLOAT"}, "N": {"i": "2"}}}, {"name": "v0/resnet_v14/Relu", "op": "Relu", "input": ["v0/resnet_v14/AddN"], "attr": {"T": {"type": "DT_FLOAT"}}}, {"name": "v0/resnet_v15/conv18/Relu", "op": "_FusedConv2D", "input": ["v0/resnet_v14/Relu", "v0/resnet_v15/conv18/conv2d/Conv2D_weights", "v0/resnet_v15/conv18/conv2d/Conv2D_bn_offset"], "device": "/device:CPU:0", "attr": {"dilations": {"list": {"i": ["1", "1", "1", "1"]}}, "T": {"type": "DT_FLOAT"}, "data_format": {"s": "TkhXQw=="}, "strides": {"list": {"i": ["1", "1", "1", "1"]}}, "use_cudnn_on_gpu": {"b": true}, "explicit_paddings": {"list": {}}, "num_args": {"i": "1"}, "epsilon": {"f": 0.0}, "padding": {"s": "U0FNRQ=="}, "fused_ops": {"list": {"s": ["Qmlhc0FkZA==", "UmVsdQ=="]}}}}, {"name": "v0/resnet_v15/conv19/Relu", "op": "_FusedConv2D", "input": ["v0/resnet_v15/conv18/Relu", "v0/resnet_v15/conv19/conv2d/Conv2D_weights", "v0/resnet_v15/conv19/conv2d/Conv2D_bn_offset"], "device": "/device:CPU:0", "attr": {"dilations": {"list": {"i": ["1", "1", "1", "1"]}}, "T": {"type": "DT_FLOAT"}, "data_format": {"s": "TkhXQw=="}, "strides": {"list": {"i": ["1", "1", "1", "1"]}}, "use_cudnn_on_gpu": {"b": true}, "explicit_paddings": {"list": {}}, "num_args": {"i": "1"}, "epsilon": {"f": 0.0}, "padding": {"s": "U0FNRQ=="}, "fused_ops": {"list": {"s": ["Qmlhc0FkZA==", "UmVsdQ=="]}}}}, {"name": "v0/resnet_v15/conv20/batchnorm20/FusedBatchNorm", "op": "_FusedConv2D", "input": ["v0/resnet_v15/conv19/Relu", "v0/resnet_v15/conv20/conv2d/Conv2D_weights", "v0/resnet_v15/conv20/conv2d/Conv2D_bn_offset"], "device": "/device:CPU:0", "attr": {"dilations": {"list": {"i": ["1", "1", "1", "1"]}}, "T": {"type": "DT_FLOAT"}, "data_format": {"s": "TkhXQw=="}, "strides": {"list": {"i": ["1", "1", "1", "1"]}}, "use_cudnn_on_gpu": {"b": true}, "explicit_paddings": {"list": {}}, "num_args": {"i": "1"}, "epsilon": {"f": 0.0}, "padding": {"s": "U0FNRQ=="}, "fused_ops": {"list": {"s": ["Qmlhc0FkZA=="]}}}}, {"name": "v0/resnet_v15/AddN", "op": "AddN", "input": ["v0/resnet_v14/Relu", "v0/resnet_v15/conv20/batchnorm20/FusedBatchNorm"], "attr": {"T": {"type": "DT_FLOAT"}, "N": {"i": "2"}}}, {"name": "v0/resnet_v15/Relu", "op": "Relu", "input": ["v0/resnet_v15/AddN"], "attr": {"T": {"type": "DT_FLOAT"}}}, {"name": "v0/resnet_v16/conv21/Relu", "op": "_FusedConv2D", "input": ["v0/resnet_v15/Relu", "v0/resnet_v16/conv21/conv2d/Conv2D_weights", "v0/resnet_v16/conv21/conv2d/Conv2D_bn_offset"], "device": "/device:CPU:0", "attr": {"dilations": {"list": {"i": ["1", "1", "1", "1"]}}, "T": {"type": "DT_FLOAT"}, "data_format": {"s": "TkhXQw=="}, "strides": {"list": {"i": ["1", "1", "1", "1"]}}, "use_cudnn_on_gpu": {"b": true}, "explicit_paddings": {"list": {}}, "num_args": {"i": "1"}, "epsilon": {"f": 0.0}, "padding": {"s": "U0FNRQ=="}, "fused_ops": {"list": {"s": ["Qmlhc0FkZA==", "UmVsdQ=="]}}}}, {"name": "v0/resnet_v16/conv22/Relu", "op": "_FusedConv2D", "input": ["v0/resnet_v16/conv21/Relu", "v0/resnet_v16/conv22/conv2d/Conv2D_weights", "v0/resnet_v16/conv22/conv2d/Conv2D_bn_offset"], "device": "/device:CPU:0", "attr": {"dilations": {"list": {"i": ["1", "1", "1", "1"]}}, "T": {"type": "DT_FLOAT"}, "data_format": {"s": "TkhXQw=="}, "strides": {"list": {"i": ["1", "1", "1", "1"]}}, "use_cudnn_on_gpu": {"b": true}, "explicit_paddings": {"list": {}}, "num_args": {"i": "1"}, "epsilon": {"f": 0.0}, "padding": {"s": "U0FNRQ=="}, "fused_ops": {"list": {"s": ["Qmlhc0FkZA==", "UmVsdQ=="]}}}}, {"name": "v0/resnet_v16/conv23/batchnorm23/FusedBatchNorm", "op": "_FusedConv2D", "input": ["v0/resnet_v16/conv22/Relu", "v0/resnet_v16/conv23/conv2d/Conv2D_weights", "v0/resnet_v16/conv23/conv2d/Conv2D_bn_offset"], "device": "/device:CPU:0", "attr": {"dilations": {"list": {"i": ["1", "1", "1", "1"]}}, "T": {"type": "DT_FLOAT"}, "data_format": {"s": "TkhXQw=="}, "strides": {"list": {"i": ["1", "1", "1", "1"]}}, "use_cudnn_on_gpu": {"b": true}, "explicit_paddings": {"list": {}}, "num_args": {"i": "1"}, "epsilon": {"f": 0.0}, "padding": {"s": "U0FNRQ=="}, "fused_ops": {"list": {"s": ["Qmlhc0FkZA=="]}}}}, {"name": "v0/resnet_v16/AddN", "op": "AddN", "input": ["v0/resnet_v15/Relu", "v0/resnet_v16/conv23/batchnorm23/FusedBatchNorm"], "attr": {"T": {"type": "DT_FLOAT"}, "N": {"i": "2"}}}, {"name": "v0/resnet_v16/Relu", "op": "Relu", "input": ["v0/resnet_v16/AddN"], "attr": {"T": {"type": "DT_FLOAT"}}}, {"name": "v0/resnet_v17/conv24/batchnorm24/FusedBatchNorm", "op": "_FusedConv2D", "input": ["v0/resnet_v16/Relu", "v0/resnet_v17/conv24/conv2d/Conv2D_weights", "v0/resnet_v17/conv24/conv2d/Conv2D_bn_offset"], "device": "/device:CPU:0", "attr": {"dilations": {"list": {"i": ["1", "1", "1", "1"]}}, "T": {"type": "DT_FLOAT"}, "data_format": {"s": "TkhXQw=="}, "strides": {"list": {"i": ["1", "2", "2", "1"]}}, "use_cudnn_on_gpu": {"b": true}, "explicit_paddings": {"list": {}}, "num_args": {"i": "1"}, "epsilon": {"f": 0.0}, "padding": {"s": "U0FNRQ=="}, "fused_ops": {"list": {"s": ["Qmlhc0FkZA=="]}}}}, {"name": "v0/resnet_v17/conv25/Relu", "op": "_FusedConv2D", "input": ["v0/resnet_v16/Relu", "v0/resnet_v17/conv25/conv2d/Conv2D_weights", "v0/resnet_v17/conv25/conv2d/Conv2D_bn_offset"], "device": "/device:CPU:0", "attr": {"dilations": {"list": {"i": ["1", "1", "1", "1"]}}, "T": {"type": "DT_FLOAT"}, "data_format": {"s": "TkhXQw=="}, "strides": {"list": {"i": ["1", "2", "2", "1"]}}, "use_cudnn_on_gpu": {"b": true}, "explicit_paddings": {"list": {}}, "num_args": {"i": "1"}, "epsilon": {"f": 0.0}, "padding": {"s": "U0FNRQ=="}, "fused_ops": {"list": {"s": ["Qmlhc0FkZA==", "UmVsdQ=="]}}}}, {"name": "v0/resnet_v17/conv26/Relu", "op": "_FusedConv2D", "input": ["v0/resnet_v17/conv25/Relu", "v0/resnet_v17/conv26/conv2d/Conv2D_weights", "v0/resnet_v17/conv26/conv2d/Conv2D_bn_offset"], "device": "/device:CPU:0", "attr": {"dilations": {"list": {"i": ["1", "1", "1", "1"]}}, "T": {"type": "DT_FLOAT"}, "data_format": {"s": "TkhXQw=="}, "strides": {"list": {"i": ["1", "1", "1", "1"]}}, "use_cudnn_on_gpu": {"b": true}, "explicit_paddings": {"list": {}}, "num_args": {"i": "1"}, "epsilon": {"f": 0.0}, "padding": {"s": "U0FNRQ=="}, "fused_ops": {"list": {"s": ["Qmlhc0FkZA==", "UmVsdQ=="]}}}}, {"name": "v0/resnet_v17/conv27/batchnorm27/FusedBatchNorm", "op": "_FusedConv2D", "input": ["v0/resnet_v17/conv26/Relu", "v0/resnet_v17/conv27/conv2d/Conv2D_weights", "v0/resnet_v17/conv27/conv2d/Conv2D_bn_offset"], "device": "/device:CPU:0", "attr": {"dilations": {"list": {"i": ["1", "1", "1", "1"]}}, "T": {"type": "DT_FLOAT"}, "data_format": {"s": "TkhXQw=="}, "strides": {"list": {"i": ["1", "1", "1", "1"]}}, "use_cudnn_on_gpu": {"b": true}, "explicit_paddings": {"list": {}}, "num_args": {"i": "1"}, "epsilon": {"f": 0.0}, "padding": {"s": "U0FNRQ=="}, "fused_ops": {"list": {"s": ["Qmlhc0FkZA=="]}}}}, {"name": "v0/resnet_v17/AddN", "op": "AddN", "input": ["v0/resnet_v17/conv24/batchnorm24/FusedBatchNorm", "v0/resnet_v17/conv27/batchnorm27/FusedBatchNorm"], "attr": {"T": {"type": "DT_FLOAT"}, "N": {"i": "2"}}}, {"name": "v0/resnet_v17/Relu", "op": "Relu", "input": ["v0/resnet_v17/AddN"], "attr": {"T": {"type": "DT_FLOAT"}}}, {"name": "v0/resnet_v18/conv28/Relu", "op": "_FusedConv2D", "input": ["v0/resnet_v17/Relu", "v0/resnet_v18/conv28/conv2d/Conv2D_weights", "v0/resnet_v18/conv28/conv2d/Conv2D_bn_offset"], "device": "/device:CPU:0", "attr": {"dilations": {"list": {"i": ["1", "1", "1", "1"]}}, "T": {"type": "DT_FLOAT"}, "data_format": {"s": "TkhXQw=="}, "strides": {"list": {"i": ["1", "1", "1", "1"]}}, "use_cudnn_on_gpu": {"b": true}, "explicit_paddings": {"list": {}}, "num_args": {"i": "1"}, "epsilon": {"f": 0.0}, "padding": {"s": "U0FNRQ=="}, "fused_ops": {"list": {"s": ["Qmlhc0FkZA==", "UmVsdQ=="]}}}}, {"name": "v0/resnet_v18/conv29/Relu", "op": "_FusedConv2D", "input": ["v0/resnet_v18/conv28/Relu", "v0/resnet_v18/conv29/conv2d/Conv2D_weights", "v0/resnet_v18/conv29/conv2d/Conv2D_bn_offset"], "device": "/device:CPU:0", "attr": {"dilations": {"list": {"i": ["1", "1", "1", "1"]}}, "T": {"type": "DT_FLOAT"}, "data_format": {"s": "TkhXQw=="}, "strides": {"list": {"i": ["1", "1", "1", "1"]}}, "use_cudnn_on_gpu": {"b": true}, "explicit_paddings": {"list": {}}, "num_args": {"i": "1"}, "epsilon": {"f": 0.0}, "padding": {"s": "U0FNRQ=="}, "fused_ops": {"list": {"s": ["Qmlhc0FkZA==", "UmVsdQ=="]}}}}, {"name": "v0/resnet_v18/conv30/batchnorm30/FusedBatchNorm", "op": "_FusedConv2D", "input": ["v0/resnet_v18/conv29/Relu", "v0/resnet_v18/conv30/conv2d/Conv2D_weights", "v0/resnet_v18/conv30/conv2d/Conv2D_bn_offset"], "device": "/device:CPU:0", "attr": {"dilations": {"list": {"i": ["1", "1", "1", "1"]}}, "T": {"type": "DT_FLOAT"}, "data_format": {"s": "TkhXQw=="}, "strides": {"list": {"i": ["1", "1", "1", "1"]}}, "use_cudnn_on_gpu": {"b": true}, "explicit_paddings": {"list": {}}, "num_args": {"i": "1"}, "epsilon": {"f": 0.0}, "padding": {"s": "U0FNRQ=="}, "fused_ops": {"list": {"s": ["Qmlhc0FkZA=="]}}}}, {"name": "v0/resnet_v18/AddN", "op": "AddN", "input": ["v0/resnet_v17/Relu", "v0/resnet_v18/conv30/batchnorm30/FusedBatchNorm"], "attr": {"T": {"type": "DT_FLOAT"}, "N": {"i": "2"}}}, {"name": "v0/resnet_v18/Relu", "op": "Relu", "input": ["v0/resnet_v18/AddN"], "attr": {"T": {"type": "DT_FLOAT"}}}, {"name": "v0/resnet_v19/conv31/Relu", "op": "_FusedConv2D", "input": ["v0/resnet_v18/Relu", "v0/resnet_v19/conv31/conv2d/Conv2D_weights", "v0/resnet_v19/conv31/conv2d/Conv2D_bn_offset"], "device": "/device:CPU:0", "attr": {"dilations": {"list": {"i": ["1", "1", "1", "1"]}}, "T": {"type": "DT_FLOAT"}, "data_format": {"s": "TkhXQw=="}, "strides": {"list": {"i": ["1", "1", "1", "1"]}}, "use_cudnn_on_gpu": {"b": true}, "explicit_paddings": {"list": {}}, "num_args": {"i": "1"}, "epsilon": {"f": 0.0}, "padding": {"s": "U0FNRQ=="}, "fused_ops": {"list": {"s": ["Qmlhc0FkZA==", "UmVsdQ=="]}}}}, {"name": "v0/resnet_v19/conv32/Relu", "op": "_FusedConv2D", "input": ["v0/resnet_v19/conv31/Relu", "v0/resnet_v19/conv32/conv2d/Conv2D_weights", "v0/resnet_v19/conv32/conv2d/Conv2D_bn_offset"], "device": "/device:CPU:0", "attr": {"dilations": {"list": {"i": ["1", "1", "1", "1"]}}, "T": {"type": "DT_FLOAT"}, "data_format": {"s": "TkhXQw=="}, "strides": {"list": {"i": ["1", "1", "1", "1"]}}, "use_cudnn_on_gpu": {"b": true}, "explicit_paddings": {"list": {}}, "num_args": {"i": "1"}, "epsilon": {"f": 0.0}, "padding": {"s": "U0FNRQ=="}, "fused_ops": {"list": {"s": ["Qmlhc0FkZA==", "UmVsdQ=="]}}}}, {"name": "v0/resnet_v19/conv33/batchnorm33/FusedBatchNorm", "op": "_FusedConv2D", "input": ["v0/resnet_v19/conv32/Relu", "v0/resnet_v19/conv33/conv2d/Conv2D_weights", "v0/resnet_v19/conv33/conv2d/Conv2D_bn_offset"], "device": "/device:CPU:0", "attr": {"dilations": {"list": {"i": ["1", "1", "1", "1"]}}, "T": {"type": "DT_FLOAT"}, "data_format": {"s": "TkhXQw=="}, "strides": {"list": {"i": ["1", "1", "1", "1"]}}, "use_cudnn_on_gpu": {"b": true}, "explicit_paddings": {"list": {}}, "num_args": {"i": "1"}, "epsilon": {"f": 0.0}, "padding": {"s": "U0FNRQ=="}, "fused_ops": {"list": {"s": ["Qmlhc0FkZA=="]}}}}, {"name": "v0/resnet_v19/AddN", "op": "AddN", "input": ["v0/resnet_v18/Relu", "v0/resnet_v19/conv33/batchnorm33/FusedBatchNorm"], "attr": {"T": {"type": "DT_FLOAT"}, "N": {"i": "2"}}}, {"name": "v0/resnet_v19/Relu", "op": "Relu", "input": ["v0/resnet_v19/AddN"], "attr": {"T": {"type": "DT_FLOAT"}}}, {"name": "v0/resnet_v110/conv34/Relu", "op": "_FusedConv2D", "input": ["v0/resnet_v19/Relu", "v0/resnet_v110/conv34/conv2d/Conv2D_weights", "v0/resnet_v110/conv34/conv2d/Conv2D_bn_offset"], "device": "/device:CPU:0", "attr": {"dilations": {"list": {"i": ["1", "1", "1", "1"]}}, "T": {"type": "DT_FLOAT"}, "data_format": {"s": "TkhXQw=="}, "strides": {"list": {"i": ["1", "1", "1", "1"]}}, "use_cudnn_on_gpu": {"b": true}, "explicit_paddings": {"list": {}}, "num_args": {"i": "1"}, "epsilon": {"f": 0.0}, "padding": {"s": "U0FNRQ=="}, "fused_ops": {"list": {"s": ["Qmlhc0FkZA==", "UmVsdQ=="]}}}}, {"name": "v0/resnet_v110/conv35/Relu", "op": "_FusedConv2D", "input": ["v0/resnet_v110/conv34/Relu", "v0/resnet_v110/conv35/conv2d/Conv2D_weights", "v0/resnet_v110/conv35/conv2d/Conv2D_bn_offset"], "device": "/device:CPU:0", "attr": {"dilations": {"list": {"i": ["1", "1", "1", "1"]}}, "T": {"type": "DT_FLOAT"}, "data_format": {"s": "TkhXQw=="}, "strides": {"list": {"i": ["1", "1", "1", "1"]}}, "use_cudnn_on_gpu": {"b": true}, "explicit_paddings": {"list": {}}, "num_args": {"i": "1"}, "epsilon": {"f": 0.0}, "padding": {"s": "U0FNRQ=="}, "fused_ops": {"list": {"s": ["Qmlhc0FkZA==", "UmVsdQ=="]}}}}, {"name": "v0/resnet_v110/conv36/batchnorm36/FusedBatchNorm", "op": "_FusedConv2D", "input": ["v0/resnet_v110/conv35/Relu", "v0/resnet_v110/conv36/conv2d/Conv2D_weights", "v0/resnet_v110/conv36/conv2d/Conv2D_bn_offset"], "device": "/device:CPU:0", "attr": {"dilations": {"list": {"i": ["1", "1", "1", "1"]}}, "T": {"type": "DT_FLOAT"}, "data_format": {"s": "TkhXQw=="}, "strides": {"list": {"i": ["1", "1", "1", "1"]}}, "use_cudnn_on_gpu": {"b": true}, "explicit_paddings": {"list": {}}, "num_args": {"i": "1"}, "epsilon": {"f": 0.0}, "padding": {"s": "U0FNRQ=="}, "fused_ops": {"list": {"s": ["Qmlhc0FkZA=="]}}}}, {"name": "v0/resnet_v110/AddN", "op": "AddN", "input": ["v0/resnet_v19/Relu", "v0/resnet_v110/conv36/batchnorm36/FusedBatchNorm"], "attr": {"T": {"type": "DT_FLOAT"}, "N": {"i": "2"}}}, {"name": "v0/resnet_v110/Relu", "op": "Relu", "input": ["v0/resnet_v110/AddN"], "attr": {"T": {"type": "DT_FLOAT"}}}, {"name": "v0/resnet_v111/conv37/Relu", "op": "_FusedConv2D", "input": ["v0/resnet_v110/Relu", "v0/resnet_v111/conv37/conv2d/Conv2D_weights", "v0/resnet_v111/conv37/conv2d/Conv2D_bn_offset"], "device": "/device:CPU:0", "attr": {"dilations": {"list": {"i": ["1", "1", "1", "1"]}}, "T": {"type": "DT_FLOAT"}, "data_format": {"s": "TkhXQw=="}, "strides": {"list": {"i": ["1", "1", "1", "1"]}}, "use_cudnn_on_gpu": {"b": true}, "explicit_paddings": {"list": {}}, "num_args": {"i": "1"}, "epsilon": {"f": 0.0}, "padding": {"s": "U0FNRQ=="}, "fused_ops": {"list": {"s": ["Qmlhc0FkZA==", "UmVsdQ=="]}}}}, {"name": "v0/resnet_v111/conv38/Relu", "op": "_FusedConv2D", "input": ["v0/resnet_v111/conv37/Relu", "v0/resnet_v111/conv38/conv2d/Conv2D_weights", "v0/resnet_v111/conv38/conv2d/Conv2D_bn_offset"], "device": "/device:CPU:0", "attr": {"dilations": {"list": {"i": ["1", "1", "1", "1"]}}, "T": {"type": "DT_FLOAT"}, "data_format": {"s": "TkhXQw=="}, "strides": {"list": {"i": ["1", "1", "1", "1"]}}, "use_cudnn_on_gpu": {"b": true}, "explicit_paddings": {"list": {}}, "num_args": {"i": "1"}, "epsilon": {"f": 0.0}, "padding": {"s": "U0FNRQ=="}, "fused_ops": {"list": {"s": ["Qmlhc0FkZA==", "UmVsdQ=="]}}}}, {"name": "v0/resnet_v111/conv39/batchnorm39/FusedBatchNorm", "op": "_FusedConv2D", "input": ["v0/resnet_v111/conv38/Relu", "v0/resnet_v111/conv39/conv2d/Conv2D_weights", "v0/resnet_v111/conv39/conv2d/Conv2D_bn_offset"], "device": "/device:CPU:0", "attr": {"dilations": {"list": {"i": ["1", "1", "1", "1"]}}, "T": {"type": "DT_FLOAT"}, "data_format": {"s": "TkhXQw=="}, "strides": {"list": {"i": ["1", "1", "1", "1"]}}, "use_cudnn_on_gpu": {"b": true}, "explicit_paddings": {"list": {}}, "num_args": {"i": "1"}, "epsilon": {"f": 0.0}, "padding": {"s": "U0FNRQ=="}, "fused_ops": {"list": {"s": ["Qmlhc0FkZA=="]}}}}, {"name": "v0/resnet_v111/AddN", "op": "AddN", "input": ["v0/resnet_v110/Relu", "v0/resnet_v111/conv39/batchnorm39/FusedBatchNorm"], "attr": {"T": {"type": "DT_FLOAT"}, "N": {"i": "2"}}}, {"name": "v0/resnet_v111/Relu", "op": "Relu", "input": ["v0/resnet_v111/AddN"], "attr": {"T": {"type": "DT_FLOAT"}}}, {"name": "v0/resnet_v112/conv40/Relu", "op": "_FusedConv2D", "input": ["v0/resnet_v111/Relu", "v0/resnet_v112/conv40/conv2d/Conv2D_weights", "v0/resnet_v112/conv40/conv2d/Conv2D_bn_offset"], "device": "/device:CPU:0", "attr": {"dilations": {"list": {"i": ["1", "1", "1", "1"]}}, "T": {"type": "DT_FLOAT"}, "data_format": {"s": "TkhXQw=="}, "strides": {"list": {"i": ["1", "1", "1", "1"]}}, "use_cudnn_on_gpu": {"b": true}, "explicit_paddings": {"list": {}}, "num_args": {"i": "1"}, "epsilon": {"f": 0.0}, "padding": {"s": "U0FNRQ=="}, "fused_ops": {"list": {"s": ["Qmlhc0FkZA==", "UmVsdQ=="]}}}}, {"name": "v0/resnet_v112/conv41/Relu", "op": "_FusedConv2D", "input": ["v0/resnet_v112/conv40/Relu", "v0/resnet_v112/conv41/conv2d/Conv2D_weights", "v0/resnet_v112/conv41/conv2d/Conv2D_bn_offset"], "device": "/device:CPU:0", "attr": {"dilations": {"list": {"i": ["1", "1", "1", "1"]}}, "T": {"type": "DT_FLOAT"}, "data_format": {"s": "TkhXQw=="}, "strides": {"list": {"i": ["1", "1", "1", "1"]}}, "use_cudnn_on_gpu": {"b": true}, "explicit_paddings": {"list": {}}, "num_args": {"i": "1"}, "epsilon": {"f": 0.0}, "padding": {"s": "U0FNRQ=="}, "fused_ops": {"list": {"s": ["Qmlhc0FkZA==", "UmVsdQ=="]}}}}, {"name": "v0/resnet_v112/conv42/batchnorm42/FusedBatchNorm", "op": "_FusedConv2D", "input": ["v0/resnet_v112/conv41/Relu", "v0/resnet_v112/conv42/conv2d/Conv2D_weights", "v0/resnet_v112/conv42/conv2d/Conv2D_bn_offset"], "device": "/device:CPU:0", "attr": {"dilations": {"list": {"i": ["1", "1", "1", "1"]}}, "T": {"type": "DT_FLOAT"}, "data_format": {"s": "TkhXQw=="}, "strides": {"list": {"i": ["1", "1", "1", "1"]}}, "use_cudnn_on_gpu": {"b": true}, "explicit_paddings": {"list": {}}, "num_args": {"i": "1"}, "epsilon": {"f": 0.0}, "padding": {"s": "U0FNRQ=="}, "fused_ops": {"list": {"s": ["Qmlhc0FkZA=="]}}}}, {"name": "v0/resnet_v112/AddN", "op": "AddN", "input": ["v0/resnet_v111/Relu", "v0/resnet_v112/conv42/batchnorm42/FusedBatchNorm"], "attr": {"T": {"type": "DT_FLOAT"}, "N": {"i": "2"}}}, {"name": "v0/resnet_v112/Relu", "op": "Relu", "input": ["v0/resnet_v112/AddN"], "attr": {"T": {"type": "DT_FLOAT"}}}, {"name": "v0/resnet_v113/conv43/batchnorm43/FusedBatchNorm", "op": "_FusedConv2D", "input": ["v0/resnet_v112/Relu", "v0/resnet_v113/conv43/conv2d/Conv2D_weights", "v0/resnet_v113/conv43/conv2d/Conv2D_bn_offset"], "device": "/device:CPU:0", "attr": {"dilations": {"list": {"i": ["1", "1", "1", "1"]}}, "T": {"type": "DT_FLOAT"}, "data_format": {"s": "TkhXQw=="}, "strides": {"list": {"i": ["1", "2", "2", "1"]}}, "use_cudnn_on_gpu": {"b": true}, "explicit_paddings": {"list": {}}, "num_args": {"i": "1"}, "epsilon": {"f": 0.0}, "padding": {"s": "U0FNRQ=="}, "fused_ops": {"list": {"s": ["Qmlhc0FkZA=="]}}}}, {"name": "v0/resnet_v113/conv44/Relu", "op": "_FusedConv2D", "input": ["v0/resnet_v112/Relu", "v0/resnet_v113/conv44/conv2d/Conv2D_weights", "v0/resnet_v113/conv44/conv2d/Conv2D_bn_offset"], "device": "/device:CPU:0", "attr": {"dilations": {"list": {"i": ["1", "1", "1", "1"]}}, "T": {"type": "DT_FLOAT"}, "data_format": {"s": "TkhXQw=="}, "strides": {"list": {"i": ["1", "2", "2", "1"]}}, "use_cudnn_on_gpu": {"b": true}, "explicit_paddings": {"list": {}}, "num_args": {"i": "1"}, "epsilon": {"f": 0.0}, "padding": {"s": "U0FNRQ=="}, "fused_ops": {"list": {"s": ["Qmlhc0FkZA==", "UmVsdQ=="]}}}}, {"name": "v0/resnet_v113/conv45/Relu", "op": "_FusedConv2D", "input": ["v0/resnet_v113/conv44/Relu", "v0/resnet_v113/conv45/conv2d/Conv2D_weights", "v0/resnet_v113/conv45/conv2d/Conv2D_bn_offset"], "device": "/device:CPU:0", "attr": {"dilations": {"list": {"i": ["1", "1", "1", "1"]}}, "T": {"type": "DT_FLOAT"}, "data_format": {"s": "TkhXQw=="}, "strides": {"list": {"i": ["1", "1", "1", "1"]}}, "use_cudnn_on_gpu": {"b": true}, "explicit_paddings": {"list": {}}, "num_args": {"i": "1"}, "epsilon": {"f": 0.0}, "padding": {"s": "U0FNRQ=="}, "fused_ops": {"list": {"s": ["Qmlhc0FkZA==", "UmVsdQ=="]}}}}, {"name": "v0/resnet_v113/conv46/batchnorm46/FusedBatchNorm", "op": "_FusedConv2D", "input": ["v0/resnet_v113/conv45/Relu", "v0/resnet_v113/conv46/conv2d/Conv2D_weights", "v0/resnet_v113/conv46/conv2d/Conv2D_bn_offset"], "device": "/device:CPU:0", "attr": {"dilations": {"list": {"i": ["1", "1", "1", "1"]}}, "T": {"type": "DT_FLOAT"}, "data_format": {"s": "TkhXQw=="}, "strides": {"list": {"i": ["1", "1", "1", "1"]}}, "use_cudnn_on_gpu": {"b": true}, "explicit_paddings": {"list": {}}, "num_args": {"i": "1"}, "epsilon": {"f": 0.0}, "padding": {"s": "U0FNRQ=="}, "fused_ops": {"list": {"s": ["Qmlhc0FkZA=="]}}}}, {"name": "v0/resnet_v113/AddN", "op": "AddN", "input": ["v0/resnet_v113/conv43/batchnorm43/FusedBatchNorm", "v0/resnet_v113/conv46/batchnorm46/FusedBatchNorm"], "attr": {"T": {"type": "DT_FLOAT"}, "N": {"i": "2"}}}, {"name": "v0/resnet_v113/Relu", "op": "Relu", "input": ["v0/resnet_v113/AddN"], "attr": {"T": {"type": "DT_FLOAT"}}}, {"name": "v0/resnet_v114/conv47/Relu", "op": "_FusedConv2D", "input": ["v0/resnet_v113/Relu", "v0/resnet_v114/conv47/conv2d/Conv2D_weights", "v0/resnet_v114/conv47/conv2d/Conv2D_bn_offset"], "device": "/device:CPU:0", "attr": {"dilations": {"list": {"i": ["1", "1", "1", "1"]}}, "T": {"type": "DT_FLOAT"}, "data_format": {"s": "TkhXQw=="}, "strides": {"list": {"i": ["1", "1", "1", "1"]}}, "use_cudnn_on_gpu": {"b": true}, "explicit_paddings": {"list": {}}, "num_args": {"i": "1"}, "epsilon": {"f": 0.0}, "padding": {"s": "U0FNRQ=="}, "fused_ops": {"list": {"s": ["Qmlhc0FkZA==", "UmVsdQ=="]}}}}, {"name": "v0/resnet_v114/conv48/Relu", "op": "_FusedConv2D", "input": ["v0/resnet_v114/conv47/Relu", "v0/resnet_v114/conv48/conv2d/Conv2D_weights", "v0/resnet_v114/conv48/conv2d/Conv2D_bn_offset"], "device": "/device:CPU:0", "attr": {"dilations": {"list": {"i": ["1", "1", "1", "1"]}}, "T": {"type": "DT_FLOAT"}, "data_format": {"s": "TkhXQw=="}, "strides": {"list": {"i": ["1", "1", "1", "1"]}}, "use_cudnn_on_gpu": {"b": true}, "explicit_paddings": {"list": {}}, "num_args": {"i": "1"}, "epsilon": {"f": 0.0}, "padding": {"s": "U0FNRQ=="}, "fused_ops": {"list": {"s": ["Qmlhc0FkZA==", "UmVsdQ=="]}}}}, {"name": "v0/resnet_v114/conv49/batchnorm49/FusedBatchNorm", "op": "_FusedConv2D", "input": ["v0/resnet_v114/conv48/Relu", "v0/resnet_v114/conv49/conv2d/Conv2D_weights", "v0/resnet_v114/conv49/conv2d/Conv2D_bn_offset"], "device": "/device:CPU:0", "attr": {"dilations": {"list": {"i": ["1", "1", "1", "1"]}}, "T": {"type": "DT_FLOAT"}, "data_format": {"s": "TkhXQw=="}, "strides": {"list": {"i": ["1", "1", "1", "1"]}}, "use_cudnn_on_gpu": {"b": true}, "explicit_paddings": {"list": {}}, "num_args": {"i": "1"}, "epsilon": {"f": 0.0}, "padding": {"s": "U0FNRQ=="}, "fused_ops": {"list": {"s": ["Qmlhc0FkZA=="]}}}}, {"name": "v0/resnet_v114/AddN", "op": "AddN", "input": ["v0/resnet_v113/Relu", "v0/resnet_v114/conv49/batchnorm49/FusedBatchNorm"], "attr": {"T": {"type": "DT_FLOAT"}, "N": {"i": "2"}}}, {"name": "v0/resnet_v114/Relu", "op": "Relu", "input": ["v0/resnet_v114/AddN"], "attr": {"T": {"type": "DT_FLOAT"}}}, {"name": "v0/resnet_v115/conv50/Relu", "op": "_FusedConv2D", "input": ["v0/resnet_v114/Relu", "v0/resnet_v115/conv50/conv2d/Conv2D_weights", "v0/resnet_v115/conv50/conv2d/Conv2D_bn_offset"], "device": "/device:CPU:0", "attr": {"dilations": {"list": {"i": ["1", "1", "1", "1"]}}, "T": {"type": "DT_FLOAT"}, "data_format": {"s": "TkhXQw=="}, "strides": {"list": {"i": ["1", "1", "1", "1"]}}, "use_cudnn_on_gpu": {"b": true}, "explicit_paddings": {"list": {}}, "num_args": {"i": "1"}, "epsilon": {"f": 0.0}, "padding": {"s": "U0FNRQ=="}, "fused_ops": {"list": {"s": ["Qmlhc0FkZA==", "UmVsdQ=="]}}}}, {"name": "v0/resnet_v115/conv51/Relu", "op": "_FusedConv2D", "input": ["v0/resnet_v115/conv50/Relu", "v0/resnet_v115/conv51/conv2d/Conv2D_weights", "v0/resnet_v115/conv51/conv2d/Conv2D_bn_offset"], "device": "/device:CPU:0", "attr": {"dilations": {"list": {"i": ["1", "1", "1", "1"]}}, "T": {"type": "DT_FLOAT"}, "data_format": {"s": "TkhXQw=="}, "strides": {"list": {"i": ["1", "1", "1", "1"]}}, "use_cudnn_on_gpu": {"b": true}, "explicit_paddings": {"list": {}}, "num_args": {"i": "1"}, "epsilon": {"f": 0.0}, "padding": {"s": "U0FNRQ=="}, "fused_ops": {"list": {"s": ["Qmlhc0FkZA==", "UmVsdQ=="]}}}}, {"name": "v0/resnet_v115/conv52/batchnorm52/FusedBatchNorm", "op": "_FusedConv2D", "input": ["v0/resnet_v115/conv51/Relu", "v0/resnet_v115/conv52/conv2d/Conv2D_weights", "v0/resnet_v115/conv52/conv2d/Conv2D_bn_offset"], "device": "/device:CPU:0", "attr": {"dilations": {"list": {"i": ["1", "1", "1", "1"]}}, "T": {"type": "DT_FLOAT"}, "data_format": {"s": "TkhXQw=="}, "strides": {"list": {"i": ["1", "1", "1", "1"]}}, "use_cudnn_on_gpu": {"b": true}, "explicit_paddings": {"list": {}}, "num_args": {"i": "1"}, "epsilon": {"f": 0.0}, "padding": {"s": "U0FNRQ=="}, "fused_ops": {"list": {"s": ["Qmlhc0FkZA=="]}}}}, {"name": "v0/resnet_v115/AddN", "op": "AddN", "input": ["v0/resnet_v114/Relu", "v0/resnet_v115/conv52/batchnorm52/FusedBatchNorm"], "attr": {"T": {"type": "DT_FLOAT"}, "N": {"i": "2"}}}, {"name": "v0/resnet_v115/Relu", "op": "Relu", "input": ["v0/resnet_v115/AddN"], "attr": {"T": {"type": "DT_FLOAT"}}}, {"name": "v0/apool0/AvgPool", "op": "AvgPool", "input": ["v0/resnet_v115/Relu"], "attr": {"ksize": {"list": {"i": ["1", "7", "7", "1"]}}, "padding": {"s": "VkFMSUQ="}, "T": {"type": "DT_FLOAT"}, "strides": {"list": {"i": ["1", "1", "1", "1"]}}, "data_format": {"s": "TkhXQw=="}}}, {"name": "v0/Reshape", "op": "Reshape", "input": ["v0/apool0/AvgPool", "v0/Reshape/shape"], "attr": {"T": {"type": "DT_FLOAT"}, "Tshape": {"type": "DT_INT32"}}}, {"name": "v0/affine0/MatMul", "op": "MatMul", "input": ["v0/Reshape", "v0/affine0/weights"], "device": "/device:CPU:0", "attr": {"transpose_b": {"b": true}, "T": {"type": "DT_FLOAT"}, "transpose_a": {"b": false}}}, {"name": "v0/affine0/add", "op": "Add", "input": ["v0/affine0/MatMul", "v0/affine0/biases"], "attr": {"T": {"type": "DT_FLOAT"}}}, {"name": "predict", "op": "Softmax", "input": ["v0/affine0/add"], "attr": {"T": {"type": "DT_FLOAT"}}}], "library": {}, "versions": {}}, "weightsManifest": [{"paths": ["group1-shard1of25.bin", "group1-shard2of25.bin", "group1-shard3of25.bin", "group1-shard4of25.bin", "group1-shard5of25.bin", "group1-shard6of25.bin", "group1-shard7of25.bin", "group1-shard8of25.bin", "group1-shard9of25.bin", "group1-shard10of25.bin", "group1-shard11of25.bin", "group1-shard12of25.bin", "group1-shard13of25.bin", "group1-shard14of25.bin", "group1-shard15of25.bin", "group1-shard16of25.bin", "group1-shard17of25.bin", "group1-shard18of25.bin", "group1-shard19of25.bin", "group1-shard20of25.bin", "group1-shard21of25.bin", "group1-shard22of25.bin", "group1-shard23of25.bin", "group1-shard24of25.bin", "group1-shard25of25.bin"], "weights": [{"name": "Mul/y", "shape": [], "dtype": "float32"}, {"name": "Sub/y", "shape": [], "dtype": "float32"}, {"name": "Mul_1/y", "shape": [], "dtype": "float32"}, {"name": "v0/conv0/Pad/paddings", "shape": [4, 2], "dtype": "int32"}, {"name": "v0/Reshape/shape", "shape": [2], "dtype": "int32"}, {"name": "v0/affine0/weights", "shape": [1001, 2048], "dtype": "float32"}, {"name": "v0/affine0/biases", "shape": [1001], "dtype": "float32"}, {"name": "v0/conv0/conv2d/Conv2D_weights", "shape": [7, 7, 3, 64], "dtype": "float32"}, {"name": "v0/resnet_v114/conv49/conv2d/Conv2D_bn_offset", "shape": [2048], "dtype": "float32"}, {"name": "v0/conv0/conv2d/Conv2D_bn_offset", "shape": [64], "dtype": "float32"}, {"name": "v0/resnet_v10/conv1/conv2d/Conv2D_weights", "shape": [1, 1, 64, 256], "dtype": "float32"}, {"name": "v0/resnet_v111/conv38/conv2d/Conv2D_weights", "shape": [3, 3, 256, 256], "dtype": "float32"}, {"name": "v0/resnet_v10/conv1/conv2d/Conv2D_bn_offset", "shape": [256], "dtype": "float32"}, {"name": "v0/resnet_v10/conv2/conv2d/Conv2D_weights", "shape": [1, 1, 64, 64], "dtype": "float32"}, {"name": "v0/resnet_v10/conv2/conv2d/Conv2D_bn_offset", "shape": [64], "dtype": "float32"}, {"name": "v0/resnet_v111/conv38/conv2d/Conv2D_bn_offset", "shape": [256], "dtype": "float32"}, {"name": "v0/resnet_v10/conv3/conv2d/Conv2D_weights", "shape": [3, 3, 64, 64], "dtype": "float32"}, {"name": "v0/resnet_v10/conv3/conv2d/Conv2D_bn_offset", "shape": [64], "dtype": "float32"}, {"name": "v0/resnet_v10/conv4/conv2d/Conv2D_weights", "shape": [1, 1, 64, 256], "dtype": "float32"}, {"name": "v0/resnet_v111/conv39/conv2d/Conv2D_weights", "shape": [1, 1, 256, 1024], "dtype": "float32"}, {"name": "v0/resnet_v10/conv4/conv2d/Conv2D_bn_offset", "shape": [256], "dtype": "float32"}, {"name": "v0/resnet_v11/conv5/conv2d/Conv2D_weights", "shape": [1, 1, 256, 64], "dtype": "float32"}, {"name": "v0/resnet_v11/conv5/conv2d/Conv2D_bn_offset", "shape": [64], "dtype": "float32"}, {"name": "v0/resnet_v111/conv39/conv2d/Conv2D_bn_offset", "shape": [1024], "dtype": "float32"}, {"name": "v0/resnet_v11/conv6/conv2d/Conv2D_weights", "shape": [3, 3, 64, 64], "dtype": "float32"}, {"name": "v0/resnet_v11/conv6/conv2d/Conv2D_bn_offset", "shape": [64], "dtype": "float32"}, {"name": "v0/resnet_v11/conv7/conv2d/Conv2D_weights", "shape": [1, 1, 64, 256], "dtype": "float32"}, {"name": "v0/resnet_v11/conv7/conv2d/Conv2D_bn_offset", "shape": [256], "dtype": "float32"}, {"name": "v0/resnet_v12/conv8/conv2d/Conv2D_weights", "shape": [1, 1, 256, 64], "dtype": "float32"}, {"name": "v0/resnet_v112/conv40/conv2d/Conv2D_weights", "shape": [1, 1, 1024, 256], "dtype": "float32"}, {"name": "v0/resnet_v12/conv8/conv2d/Conv2D_bn_offset", "shape": [64], "dtype": "float32"}, {"name": "v0/resnet_v115/conv50/conv2d/Conv2D_weights", "shape": [1, 1, 2048, 512], "dtype": "float32"}, {"name": "v0/resnet_v12/conv9/conv2d/Conv2D_weights", "shape": [3, 3, 64, 64], "dtype": "float32"}, {"name": "v0/resnet_v112/conv40/conv2d/Conv2D_bn_offset", "shape": [256], "dtype": "float32"}, {"name": "v0/resnet_v12/conv9/conv2d/Conv2D_bn_offset", "shape": [64], "dtype": "float32"}, {"name": "v0/resnet_v12/conv10/conv2d/Conv2D_weights", "shape": [1, 1, 64, 256], "dtype": "float32"}, {"name": "v0/resnet_v12/conv10/conv2d/Conv2D_bn_offset", "shape": [256], "dtype": "float32"}, {"name": "v0/resnet_v13/conv11/conv2d/Conv2D_weights", "shape": [1, 1, 256, 512], "dtype": "float32"}, {"name": "v0/resnet_v112/conv41/conv2d/Conv2D_weights", "shape": [3, 3, 256, 256], "dtype": "float32"}, {"name": "v0/resnet_v13/conv11/conv2d/Conv2D_bn_offset", "shape": [512], "dtype": "float32"}, {"name": "v0/resnet_v13/conv12/conv2d/Conv2D_weights", "shape": [1, 1, 256, 128], "dtype": "float32"}, {"name": "v0/resnet_v115/conv50/conv2d/Conv2D_bn_offset", "shape": [512], "dtype": "float32"}, {"name": "v0/resnet_v13/conv12/conv2d/Conv2D_bn_offset", "shape": [128], "dtype": "float32"}, {"name": "v0/resnet_v112/conv41/conv2d/Conv2D_bn_offset", "shape": [256], "dtype": "float32"}, {"name": "v0/resnet_v13/conv13/conv2d/Conv2D_weights", "shape": [3, 3, 128, 128], "dtype": "float32"}, {"name": "v0/resnet_v13/conv13/conv2d/Conv2D_bn_offset", "shape": [128], "dtype": "float32"}, {"name": "v0/resnet_v13/conv14/conv2d/Conv2D_weights", "shape": [1, 1, 128, 512], "dtype": "float32"}, {"name": "v0/resnet_v112/conv42/conv2d/Conv2D_weights", "shape": [1, 1, 256, 1024], "dtype": "float32"}, {"name": "v0/resnet_v13/conv14/conv2d/Conv2D_bn_offset", "shape": [512], "dtype": "float32"}, {"name": "v0/resnet_v14/conv15/conv2d/Conv2D_weights", "shape": [1, 1, 512, 128], "dtype": "float32"}, {"name": "v0/resnet_v14/conv15/conv2d/Conv2D_bn_offset", "shape": [128], "dtype": "float32"}, {"name": "v0/resnet_v112/conv42/conv2d/Conv2D_bn_offset", "shape": [1024], "dtype": "float32"}, {"name": "v0/resnet_v14/conv16/conv2d/Conv2D_weights", "shape": [3, 3, 128, 128], "dtype": "float32"}, {"name": "v0/resnet_v14/conv16/conv2d/Conv2D_bn_offset", "shape": [128], "dtype": "float32"}, {"name": "v0/resnet_v14/conv17/conv2d/Conv2D_weights", "shape": [1, 1, 128, 512], "dtype": "float32"}, {"name": "v0/resnet_v14/conv17/conv2d/Conv2D_bn_offset", "shape": [512], "dtype": "float32"}, {"name": "v0/resnet_v15/conv18/conv2d/Conv2D_weights", "shape": [1, 1, 512, 128], "dtype": "float32"}, {"name": "v0/resnet_v113/conv43/conv2d/Conv2D_weights", "shape": [1, 1, 1024, 2048], "dtype": "float32"}, {"name": "v0/resnet_v15/conv18/conv2d/Conv2D_bn_offset", "shape": [128], "dtype": "float32"}, {"name": "v0/resnet_v115/conv51/conv2d/Conv2D_weights", "shape": [3, 3, 512, 512], "dtype": "float32"}, {"name": "v0/resnet_v15/conv19/conv2d/Conv2D_weights", "shape": [3, 3, 128, 128], "dtype": "float32"}, {"name": "v0/resnet_v113/conv43/conv2d/Conv2D_bn_offset", "shape": [2048], "dtype": "float32"}, {"name": "v0/resnet_v15/conv19/conv2d/Conv2D_bn_offset", "shape": [128], "dtype": "float32"}, {"name": "v0/resnet_v15/conv20/conv2d/Conv2D_weights", "shape": [1, 1, 128, 512], "dtype": "float32"}, {"name": "v0/resnet_v113/conv44/conv2d/Conv2D_weights", "shape": [1, 1, 1024, 512], "dtype": "float32"}, {"name": "v0/resnet_v15/conv20/conv2d/Conv2D_bn_offset", "shape": [512], "dtype": "float32"}, {"name": "v0/resnet_v16/conv21/conv2d/Conv2D_weights", "shape": [1, 1, 512, 128], "dtype": "float32"}, {"name": "v0/resnet_v16/conv21/conv2d/Conv2D_bn_offset", "shape": [128], "dtype": "float32"}, {"name": "v0/resnet_v113/conv44/conv2d/Conv2D_bn_offset", "shape": [512], "dtype": "float32"}, {"name": "v0/resnet_v16/conv22/conv2d/Conv2D_weights", "shape": [3, 3, 128, 128], "dtype": "float32"}, {"name": "v0/resnet_v115/conv51/conv2d/Conv2D_bn_offset", "shape": [512], "dtype": "float32"}, {"name": "v0/resnet_v16/conv22/conv2d/Conv2D_bn_offset", "shape": [128], "dtype": "float32"}, {"name": "v0/resnet_v16/conv23/conv2d/Conv2D_weights", "shape": [1, 1, 128, 512], "dtype": "float32"}, {"name": "v0/resnet_v113/conv45/conv2d/Conv2D_weights", "shape": [3, 3, 512, 512], "dtype": "float32"}, {"name": "v0/resnet_v16/conv23/conv2d/Conv2D_bn_offset", "shape": [512], "dtype": "float32"}, {"name": "v0/resnet_v17/conv24/conv2d/Conv2D_weights", "shape": [1, 1, 512, 1024], "dtype": "float32"}, {"name": "v0/resnet_v17/conv24/conv2d/Conv2D_bn_offset", "shape": [1024], "dtype": "float32"}, {"name": "v0/resnet_v17/conv25/conv2d/Conv2D_weights", "shape": [1, 1, 512, 256], "dtype": "float32"}, {"name": "v0/resnet_v113/conv45/conv2d/Conv2D_bn_offset", "shape": [512], "dtype": "float32"}, {"name": "v0/resnet_v17/conv25/conv2d/Conv2D_bn_offset", "shape": [256], "dtype": "float32"}, {"name": "v0/resnet_v17/conv26/conv2d/Conv2D_weights", "shape": [3, 3, 256, 256], "dtype": "float32"}, {"name": "v0/resnet_v17/conv26/conv2d/Conv2D_bn_offset", "shape": [256], "dtype": "float32"}, {"name": "v0/resnet_v113/conv46/conv2d/Conv2D_weights", "shape": [1, 1, 512, 2048], "dtype": "float32"}, {"name": "v0/resnet_v17/conv27/conv2d/Conv2D_weights", "shape": [1, 1, 256, 1024], "dtype": "float32"}, {"name": "v0/resnet_v115/conv52/conv2d/Conv2D_weights", "shape": [1, 1, 512, 2048], "dtype": "float32"}, {"name": "v0/resnet_v17/conv27/conv2d/Conv2D_bn_offset", "shape": [1024], "dtype": "float32"}, {"name": "v0/resnet_v18/conv28/conv2d/Conv2D_weights", "shape": [1, 1, 1024, 256], "dtype": "float32"}, {"name": "v0/resnet_v113/conv46/conv2d/Conv2D_bn_offset", "shape": [2048], "dtype": "float32"}, {"name": "v0/resnet_v18/conv28/conv2d/Conv2D_bn_offset", "shape": [256], "dtype": "float32"}, {"name": "v0/resnet_v18/conv29/conv2d/Conv2D_weights", "shape": [3, 3, 256, 256], "dtype": "float32"}, {"name": "v0/resnet_v18/conv29/conv2d/Conv2D_bn_offset", "shape": [256], "dtype": "float32"}, {"name": "v0/resnet_v18/conv30/conv2d/Conv2D_weights", "shape": [1, 1, 256, 1024], "dtype": "float32"}, {"name": "v0/resnet_v114/conv47/conv2d/Conv2D_weights", "shape": [1, 1, 2048, 512], "dtype": "float32"}, {"name": "v0/resnet_v18/conv30/conv2d/Conv2D_bn_offset", "shape": [1024], "dtype": "float32"}, {"name": "v0/resnet_v19/conv31/conv2d/Conv2D_weights", "shape": [1, 1, 1024, 256], "dtype": "float32"}, {"name": "v0/resnet_v19/conv31/conv2d/Conv2D_bn_offset", "shape": [256], "dtype": "float32"}, {"name": "v0/resnet_v114/conv47/conv2d/Conv2D_bn_offset", "shape": [512], "dtype": "float32"}, {"name": "v0/resnet_v19/conv32/conv2d/Conv2D_weights", "shape": [3, 3, 256, 256], "dtype": "float32"}, {"name": "v0/resnet_v115/conv52/conv2d/Conv2D_bn_offset", "shape": [2048], "dtype": "float32"}, {"name": "v0/resnet_v19/conv32/conv2d/Conv2D_bn_offset", "shape": [256], "dtype": "float32"}, {"name": "v0/resnet_v19/conv33/conv2d/Conv2D_weights", "shape": [1, 1, 256, 1024], "dtype": "float32"}, {"name": "v0/resnet_v114/conv48/conv2d/Conv2D_weights", "shape": [3, 3, 512, 512], "dtype": "float32"}, {"name": "v0/resnet_v19/conv33/conv2d/Conv2D_bn_offset", "shape": [1024], "dtype": "float32"}, {"name": "v0/resnet_v110/conv34/conv2d/Conv2D_weights", "shape": [1, 1, 1024, 256], "dtype": "float32"}, {"name": "v0/resnet_v110/conv34/conv2d/Conv2D_bn_offset", "shape": [256], "dtype": "float32"}, {"name": "v0/resnet_v114/conv48/conv2d/Conv2D_bn_offset", "shape": [512], "dtype": "float32"}, {"name": "v0/resnet_v110/conv35/conv2d/Conv2D_weights", "shape": [3, 3, 256, 256], "dtype": "float32"}, {"name": "v0/resnet_v110/conv35/conv2d/Conv2D_bn_offset", "shape": [256], "dtype": "float32"}, {"name": "v0/resnet_v110/conv36/conv2d/Conv2D_weights", "shape": [1, 1, 256, 1024], "dtype": "float32"}, {"name": "v0/resnet_v114/conv49/conv2d/Conv2D_weights", "shape": [1, 1, 512, 2048], "dtype": "float32"}, {"name": "v0/resnet_v110/conv36/conv2d/Conv2D_bn_offset", "shape": [1024], "dtype": "float32"}, {"name": "v0/resnet_v111/conv37/conv2d/Conv2D_weights", "shape": [1, 1, 1024, 256], "dtype": "float32"}, {"name": "v0/resnet_v111/conv37/conv2d/Conv2D_bn_offset", "shape": [256], "dtype": "float32"}]}]}